Code/04_Bilderkennung/mnist_lstm_quant.tflite (tflite, 13952 bytes, 9 tensors)

model/sequential/output/MatMul i1 [10, 560] scale=0.008382817 zero_point=0
0	0x0e	0.11735944
1	0xe4	-0.23471887
2	0x0f	0.12574226
3	0xe1	-0.2598673
4	0x1f	0.2598673
5	0x0d	0.10897662
6	0xeb	-0.17603916
7	0xf5	-0.092210986
8	0x0f	0.12574226
9	0x13	0.15927352
10	0xe1	-0.2598673
11	0xf2	-0.11735944
12	0xd2	-0.38560957
13	0xe9	-0.19280478
14	0xeb	-0.17603916
15	0xf6	-0.083828166
16	0x08	0.067062534
17	0xe2	-0.2514845
18	0x15	0.17603916
19	0x13	0.15927352
20	0x0c	0.100593805
21	0xea	-0.18442197
22	0x31	0.41075802
23	0xea	-0.18442197
24	0x1b	0.22633605
25	0xf6	-0.083828166
26	0xd8	-0.33531266
27	0xf5	-0.092210986
28	0x20	0.26825014
29	0x2f	0.3939924
30	0xd4	-0.36884394
31	0xfd	-0.025148451
32	0xde	-0.28501576
33	0xe7	-0.20957042
34	0xec	-0.16765633
35	0xea	-0.18442197
36	0xee	-0.15089071
37	0xdf	-0.27663296
38	0x18	0.20118761
39	0x21	0.27663296
40	0xec	-0.16765633
41	0xfb	-0.041914083
42	0x06	0.050296903
43	0xe5	-0.22633605
44	0xff	-0.008382817
45	0x39	0.47782055
46	0xfd	-0.025148451
47	0x15	0.17603916
48	0x18	0.20118761
49	0x03	0.025148451
50	0x03	0.025148451
51	0xe3	-0.24310169
52	0xe4	-0.23471887
53	0xef	-0.14250788
54	0x0d	0.10897662
55	0xe4	-0.23471887
56	0x14	0.16765633
57	0x02	0.016765634
58	0x1e	0.2514845
59	0xf8	-0.067062534
60	0x03	0.025148451
61	0x12	0.15089071
62	0xe8	-0.20118761
63	0x02	0.016765634
64	0x03	0.025148451
65	0x2f	0.3939924
66	0x1a	0.21795323
67	0xfa	-0.050296903
68	0xef	-0.14250788
69	0xbe	-0.5532659
70	0xfb	-0.041914083
71	0xe2	-0.2514845
72	0x19	0.20957042
73	0xf4	-0.100593805
74	0x13	0.15927352
75	0xdb	-0.3101642
76	0x08	0.067062534
77	0x13	0.15927352
78	0xef	-0.14250788
79	0xee	-0.15089071
80	0xfc	-0.033531267
81	0x16	0.18442197
82	0x25	0.3101642
83	0xe6	-0.21795323
84	0x03	0.025148451
85	0x02	0.016765634
86	0x18	0.20118761
87	0xfa	-0.050296903
88	0xf8	-0.067062534
89	0xdb	-0.3101642
90	0xdd	-0.2933986
91	0x04	0.033531267
92	0x3a	0.48620337
93	0xe9	-0.19280478
94	0x0d	0.10897662
95	0xf9	-0.05867972
96	0xe6	-0.21795323
97	0x05	0.041914083
98	0xed	-0.15927352
99	0xe5	-0.22633605
100	0xe3	-0.24310169
101	0x01	0.008382817
102	0x08	0.067062534
103	0xea	-0.18442197
104	0x27	0.32692987
105	0x14	0.16765633
106	0x18	0.20118761
107	0xec	-0.16765633
108	0xf8	-0.067062534
109	0xcb	-0.4442893
110	0xfd	-0.025148451
111	0xf8	-0.067062534
112	0x15	0.17603916
113	0xdb	-0.3101642
114	0x1a	0.21795323
115	0xf5	-0.092210986
116	0xf7	-0.075445354
117	0x0d	0.10897662
118	0xe4	-0.23471887
119	0xe2	-0.2514845
120	0xdc	-0.30178142
121	0xfe	-0.016765634
122	0xf1	-0.12574226
123	0xf1	-0.12574226
124	0x0d	0.10897662
125	0x10	0.13412507
126	0xf5	-0.092210986
127	0xe9	-0.19280478
128	0xeb	-0.17603916
129	0xeb	-0.17603916
130	0x12	0.15089071
131	0xf5	-0.092210986
132	0x12	0.15089071
133	0xfb	-0.041914083
134	0xff	-0.008382817
135	0x0d	0.10897662
136	0x0b	0.092210986
137	0x12	0.15089071
138	0xee	-0.15089071
139	0xd9	-0.32692987
140	0x07	0.05867972
141	0xfb	-0.041914083
142	0xf3	-0.10897662
143	0xf6	-0.083828166
144	0xfa	-0.050296903
145	0x0e	0.11735944
146	0xe8	-0.20118761
147	0xef	-0.14250788
148	0xf5	-0.092210986
149	0x12	0.15089071
150	0x01	0.008382817
151	0xf4	-0.100593805
152	0x08	0.067062534
153	0xf5	-0.092210986
154	0xf8	-0.067062534
155	0x22	0.28501576
156	0x06	0.050296903
157	0x1c	0.23471887
158	0x0a	0.083828166
159	0xf2	-0.11735944
160	0x19	0.20957042
161	0xf9	-0.05867972
162	0x15	0.17603916
163	0x02	0.016765634
164	0xf3	-0.10897662
165	0x1a	0.21795323
166	0xef	-0.14250788
167	0xf7	-0.075445354
168	0x01	0.008382817
169	0x27	0.32692987
170	0xf7	-0.075445354
171	0x23	0.2933986
172	0xfb	-0.041914083
173	0x0a	0.083828166
174	0xe2	-0.2514845
175	0x0b	0.092210986
176	0xff	-0.008382817
177	0xe5	-0.22633605
178	0xfc	-0.033531267
179	0xfa	-0.050296903
180	0x02	0.016765634
181	0xdc	-0.30178142
182	0x0b	0.092210986
183	0xe4	-0.23471887
184	0x00	0.0
185	0x0e	0.11735944
186	0xe5	-0.22633605
187	0x0a	0.083828166
188	0xfa	-0.050296903
189	0x23	0.2933986
190	0xf5	-0.092210986
191	0x2c	0.36884394
192	0xd0	-0.40237522
193	0x10	0.13412507
194	0xe6	-0.21795323
195	0xf3	-0.10897662
196	0xf9	-0.05867972
197	0xd4	-0.36884394
198	0x03	0.025148451
199	0xf9	-0.05867972
200	0x08	0.067062534
201	0xc8	-0.46943775
202	0x1f	0.2598673
203	0x02	0.016765634
204	0x13	0.15927352
205	0xf7	-0.075445354
206	0xf6	-0.083828166
207	0x09	0.075445354
208	0xd3	-0.37722677
209	0x23	0.2933986
210	0x00	0.0
211	0x1e	0.2514845
212	0xd7	-0.3436955
213	0x05	0.041914083
214	0xde	-0.28501576
215	0xe2	-0.2514845
216	0xfe	-0.016765634
217	0xb8	-0.60356283
218	0x0a	0.083828166
219	0xfe	-0.016765634
220	0x04	0.033531267
221	0xd6	-0.35207832
222	0x1f	0.2598673
223	0x07	0.05867972
224	0x18	0.20118761
225	0xf6	-0.083828166
226	0x1b	0.22633605
227	0xf8	-0.067062534
228	0xe8	-0.20118761
229	0x10	0.13412507
230	0x1c	0.23471887
231	0x09	0.075445354
232	0xd1	-0.3939924
233	0x05	0.041914083
234	0xf2	-0.11735944
235	0xd3	-0.37722677
236	0x12	0.15089071
237	0xd0	-0.40237522
238	0x01	0.008382817
239	0xfb	-0.041914083
240	0x17	0.19280478
241	0x08	0.067062534
242	0x0e	0.11735944
243	0x0e	0.11735944
244	0x03	0.025148451
245	0x00	0.0
246	0x20	0.26825014
247	0x0c	0.100593805
248	0xfa	-0.050296903
249	0x13	0.15927352
250	0x0e	0.11735944
251	0xf9	-0.05867972
252	0xe1	-0.2598673
253	0xf6	-0.083828166
254	0x05	0.041914083
255	0xe5	-0.22633605

arith.constant3 i1 [20, 20] scale=0.0113972975 zero_point=0
0	0xd8	-0.4558919
1	0x0d	0.14816487
2	0x26	0.4330973
3	0x34	0.5926595
4	0x15	0.23934324
5	0x04	0.04558919
6	0xfc	-0.04558919
7	0x39	0.649646
8	0x42	0.75222164
9	0x2c	0.5014811
10	0xe2	-0.34191892
11	0x1e	0.34191892
12	0x1d	0.3305216
13	0xc4	-0.68383783
14	0xae	-0.9345784
15	0xdc	-0.4103027
16	0x16	0.25074056
17	0xeb	-0.23934324
18	0xd8	-0.4558919
19	0x25	0.4217
20	0xc6	-0.6610432
21	0x18	0.27353513
22	0x47	0.8092081
23	0x15	0.23934324
24	0xfc	-0.04558919
25	0xee	-0.20515135
26	0xea	-0.25074056
27	0x3f	0.71802974
28	0x25	0.4217
29	0x30	0.54707026
30	0xf6	-0.11397298
31	0x0f	0.17095946
32	0xda	-0.4330973
33	0x11	0.19375406
34	0xf8	-0.09117838
35	0xfa	-0.06838378
36	0x0c	0.13676757
37	0xcf	-0.55846757
38	0xea	-0.25074056
39	0xe1	-0.35331622
40	0xbe	-0.75222164
41	0xe9	-0.26213783
42	0xfc	-0.04558919
43	0x4d	0.8775919
44	0x24	0.4103027
45	0xe5	-0.30772704
46	0xf9	-0.079781085
47	0x01	0.0113972975
48	0x19	0.28493243
49	0x0a	0.11397298
50	0x04	0.04558919
51	0xe3	-0.3305216
52	0xf9	-0.079781085
53	0xee	-0.20515135
54	0x05	0.05698649
55	0xe7	-0.28493243
56	0x03	0.03419189
57	0xef	-0.19375406
58	0x18	0.27353513
59	0x29	0.4672892
60	0xe3	-0.3305216
61	0x1e	0.34191892
62	0x06	0.06838378
63	0x07	0.079781085
64	0xdd	-0.39890543
65	0x10	0.18235676
66	0xf9	-0.079781085
67	0x27	0.4444946
68	0x25	0.4217
69	0x13	0.21654865
70	0x1a	0.29632974
71	0xec	-0.22794595
72	0xd0	-0.54707026
73	0x11	0.19375406
74	0xe8	-0.27353513
75	0xeb	-0.23934324
76	0x2e	0.52427566
77	0x39	0.649646
78	0xea	-0.25074056
79	0x15	0.23934324
80	0xd1	-0.53567296
81	0x25	0.4217
82	0xec	-0.22794595
83	0x1d	0.3305216
84	0xf9	-0.079781085
85	0xe8	-0.27353513
86	0xed	-0.21654865
87	0x1e	0.34191892
88	0x4c	0.8661946
89	0x1a	0.29632974
90	0x20	0.36471352
91	0xfb	-0.05698649
92	0x02	0.022794595
93	0xe9	-0.26213783
94	0xf8	-0.09117838
95	0x2c	0.5014811
96	0x3e	0.70663244
97	0xf5	-0.12537028
98	0x19	0.28493243
99	0x0f	0.17095946
100	0x09	0.102575675
101	0xdb	-0.4217
102	0xf2	-0.15956217
103	0x21	0.37611082
104	0xf3	-0.14816487
105	0xec	-0.22794595
106	0xec	-0.22794595
107	0x13	0.21654865
108	0x46	0.79781085
109	0xe3	-0.3305216
110	0x3e	0.70663244
111	0xf4	-0.13676757
112	0xc6	-0.6610432
113	0xdc	-0.4103027
114	0xe8	-0.27353513
115	0xf4	-0.13676757
116	0x0e	0.15956217
117	0x11	0.19375406
118	0xf4	-0.13676757
119	0x2e	0.52427566
120	0x37	0.6268514
121	0xe8	-0.27353513
122	0x7f	1.4474568
123	0xd9	-0.4444946
124	0x4a	0.8434
125	0xf3	-0.14816487
126	0xf3	-0.14816487
127	0x2e	0.52427566
128	0x33	0.5812622
129	0x05	0.05698649
130	0xcf	-0.55846757
131	0x44	0.77501625
132	0x1e	0.34191892
133	0x09	0.102575675
134	0xb1	-0.9003865
135	0xf8	-0.09117838
136	0xdf	-0.37611082
137	0xb3	-0.8775919
138	0xed	-0.21654865
139	0xec	-0.22794595
140	0xee	-0.20515135
141	0x01	0.0113972975
142	0xe4	-0.31912434
143	0x6a	1.2081136
144	0x02	0.022794595
145	0x8c	-1.3220865
146	0x15	0.23934324
147	0xff	-0.0113972975
148	0x20	0.36471352
149	0xfd	-0.03419189
150	0x2c	0.5014811
151	0x14	0.22794595
152	0xfa	-0.06838378
153	0xff	-0.0113972975
154	0x1a	0.29632974
155	0x07	0.079781085
156	0x22	0.38750812
157	0xf3	-0.14816487
158	0x0e	0.15956217
159	0xc9	-0.6268514
160	0xe9	-0.26213783
161	0xff	-0.0113972975
162	0x22	0.38750812
163	0x1b	0.30772704
164	0x2b	0.49008378
165	0xd9	-0.4444946
166	0xfc	-0.04558919
167	0xfb	-0.05698649
168	0x33	0.5812622
169	0xeb	-0.23934324
170	0xdd	-0.39890543
171	0xfe	-0.022794595
172	0xfa	-0.06838378
173	0xfd	-0.03419189
174	0xee	-0.20515135
175	0xfa	-0.06838378
176	0x1a	0.29632974
177	0xeb	-0.23934324
178	0x11	0.19375406
179	0x2a	0.47868648
180	0x10	0.18235676
181	0x0c	0.13676757
182	0x10	0.18235676
183	0x33	0.5812622
184	0x32	0.56986487
185	0xac	-0.95737296
186	0x05	0.05698649
187	0x1f	0.35331622
188	0xef	-0.19375406
189	0xf1	-0.17095946
190	0x0d	0.14816487
191	0x01	0.0113972975
192	0xf8	-0.09117838
193	0x25	0.4217
194	0xe9	-0.26213783
195	0x1f	0.35331622
196	0x0b	0.12537028
197	0x0b	0.12537028
198	0x1b	0.30772704
199	0xfb	-0.05698649
200	0xf4	-0.13676757
201	0xf6	-0.11397298
202	0x02	0.022794595
203	0x32	0.56986487
204	0x00	0.0
205	0x0b	0.12537028
206	0x00	0.0
207	0xe4	-0.31912434
208	0xfe	-0.022794595
209	0x2b	0.49008378
210	0x20	0.36471352
211	0xfa	-0.06838378
212	0xec	-0.22794595
213	0x26	0.4330973
214	0xd1	-0.53567296
215	0xe3	-0.3305216
216	0xe6	-0.29632974
217	0xfa	-0.06838378
218	0x11	0.19375406
219	0xfc	-0.04558919
220	0xf8	-0.09117838
221	0xeb	-0.23934324
222	0x02	0.022794595
223	0x27	0.4444946
224	0x08	0.09117838
225	0xe2	-0.34191892
226	0x0f	0.17095946
227	0xca	-0.6154541
228	0xd0	-0.54707026
229	0x42	0.75222164
230	0x16	0.25074056
231	0xeb	-0.23934324
232	0xae	-0.9345784
233	0x1f	0.35331622
234	0xd1	-0.53567296
235	0xc7	-0.649646
236	0x0e	0.15956217
237	0xd8	-0.4558919
238	0xed	-0.21654865
239	0xeb	-0.23934324
240	0xd5	-0.49008378
241	0x1c	0.31912434
242	0x04	0.04558919
243	0x27	0.4444946
244	0x0e	0.15956217
245	0x03	0.03419189
246	0xf6	-0.11397298
247	0x35	0.6040568
248	0x13	0.21654865
249	0xfd	-0.03419189
250	0x1a	0.29632974
251	0x30	0.54707026
252	0x0f	0.17095946
253	0xf9	-0.079781085
254	0xd5	-0.49008378
255	0xdc	-0.4103027

arith.constant2 i1 [20, 20] scale=0.0062797363 zero_point=0
0	0x1c	0.17583261
1	0x25	0.23235025
2	0xed	-0.11931499
3	0xea	-0.1381542
4	0xec	-0.12559472
5	0x4c	0.47725996
6	0x77	0.74728864
7	0x10	0.10047578
8	0xf7	-0.056517627
9	0xdd	-0.21979077
10	0x09	0.056517627
11	0xf5	-0.0690771
12	0x2b	0.27002865
13	0x31	0.30770707
14	0xd9	-0.24490972
15	0x36	0.33910576
16	0xed	-0.11931499
17	0x4d	0.4835397
18	0x0f	0.094196044
19	0xe6	-0.16327314
20	0xdc	-0.22607051
21	0x05	0.03139868
22	0x35	0.33282602
23	0x56	0.5400573
24	0x49	0.45842075
25	0xd1	-0.2951476
26	0xf3	-0.08163657
27	0x04	0.025118945
28	0x49	0.45842075
29	0x18	0.15071367
30	0xf9	-0.043958154
31	0xb7	-0.45842075
32	0xf5	-0.0690771
33	0x45	0.4333018
34	0x24	0.22607051
35	0x0b	0.0690771
36	0xea	-0.1381542
37	0x20	0.20095156
38	0x47	0.44586128
39	0x04	0.025118945
40	0x0c	0.07535683
41	0xf0	-0.10047578
42	0x08	0.05023789
43	0xdb	-0.23235025
44	0xdf	-0.2072313
45	0x15	0.13187446
46	0xe7	-0.1569934
47	0xd8	-0.25118944
48	0xe9	-0.14443393
49	0x22	0.21351103
50	0xdb	-0.23235025
51	0xca	-0.33910576
52	0x13	0.11931499
53	0x34	0.32654628
54	0xd5	-0.27002865
55	0x01	0.0062797363
56	0xe3	-0.18211235
57	0xf8	-0.05023789
58	0xfe	-0.012559473
59	0xe8	-0.15071367
60	0x14	0.12559472
61	0x09	0.056517627
62	0x25	0.23235025
63	0x31	0.30770707
64	0xf6	-0.06279736
65	0x09	0.056517627
66	0xe6	-0.16327314
67	0x06	0.037678417
68	0x11	0.10675552
69	0xc6	-0.3642247
70	0xd2	-0.28886786
71	0x15	0.13187446
72	0xfd	-0.018839208
73	0x0f	0.094196044
74	0xd3	-0.28258812
75	0x0d	0.08163657
76	0x20	0.20095156
77	0xe1	-0.19467182
78	0x06	0.037678417
79	0x25	0.23235025
80	0x0f	0.094196044
81	0xd1	-0.2951476
82	0x35	0.33282602
83	0xff	-0.0062797363
84	0xf1	-0.094196044
85	0xee	-0.113035254
86	0xc4	-0.37678418
87	0x23	0.21979077
88	0xe0	-0.20095156
89	0xde	-0.21351103
90	0xef	-0.10675552
91	0x09	0.056517627
92	0xd6	-0.2637489
93	0x13	0.11931499
94	0xdb	-0.23235025
95	0xf7	-0.056517627
96	0xc0	-0.40190312
97	0xe8	-0.15071367
98	0xc6	-0.3642247
99	0xe7	-0.1569934
100	0xe0	-0.20095156
101	0x1c	0.17583261
102	0x19	0.1569934
103	0xec	-0.12559472
104	0x11	0.10675552
105	0x1d	0.18211235
106	0xea	-0.1381542
107	0x35	0.33282602
108	0x16	0.1381542
109	0x10	0.10047578
110	0x35	0.33282602
111	0x01	0.0062797363
112	0xfe	-0.012559473
113	0x2e	0.28886786
114	0x0c	0.07535683
115	0x1e	0.18839209
116	0x19	0.1569934
117	0xdf	-0.2072313
118	0x02	0.012559473
119	0x1e	0.18839209
120	0xdd	-0.21979077
121	0x0c	0.07535683
122	0x29	0.25746918
123	0xca	-0.33910576
124	0x0b	0.0690771
125	0x1d	0.18211235
126	0xfe	-0.012559473
127	0xdf	-0.2072313
128	0x2a	0.2637489
129	0xf0	-0.10047578
130	0xd0	-0.30142733
131	0x06	0.037678417
132	0x35	0.33282602
133	0x0f	0.094196044
134	0xdb	-0.23235025
135	0x28	0.25118944
136	0x1a	0.16327314
137	0xc2	-0.38934365
138	0x2d	0.28258812
139	0xec	-0.12559472
140	0xe1	-0.19467182
141	0x15	0.13187446
142	0x08	0.05023789
143	0xf4	-0.07535683
144	0x04	0.025118945
145	0x29	0.25746918
146	0xd9	-0.24490972
147	0x36	0.33910576
148	0x22	0.21351103
149	0x43	0.42074233
150	0x03	0.018839208
151	0xff	-0.0062797363
152	0x0c	0.07535683
153	0x2f	0.2951476
154	0xeb	-0.13187446
155	0x39	0.35794497
156	0x1e	0.18839209
157	0x00	0.0
158	0x28	0.25118944
159	0x2f	0.2951476
160	0x01	0.0062797363
161	0xd6	-0.2637489
162	0x00	0.0
163	0x08	0.05023789
164	0x09	0.056517627
165	0x05	0.03139868
166	0xd0	-0.30142733
167	0xf0	-0.10047578
168	0x47	0.44586128
169	0xf4	-0.07535683
170	0xf2	-0.08791631
171	0x33	0.32026654
172	0xfd	-0.018839208
173	0xe9	-0.14443393
174	0xfe	-0.012559473
175	0x30	0.30142733
176	0x27	0.24490972
177	0x11	0.10675552
178	0x40	0.40190312
179	0x07	0.043958154
180	0x0d	0.08163657
181	0xe2	-0.18839209
182	0xeb	-0.13187446
183	0x0d	0.08163657
184	0xee	-0.113035254
185	0x28	0.25118944
186	0x1a	0.16327314
187	0xd3	-0.28258812
188	0xf1	-0.094196044
189	0xfa	-0.037678417
190	0x1a	0.16327314
191	0xd6	-0.2637489
192	0x2e	0.28886786
193	0x41	0.40818286
194	0x25	0.23235025
195	0xcd	-0.32026654
196	0xec	-0.12559472
197	0xf9	-0.043958154
198	0xd8	-0.25118944
199	0x12	0.113035254
200	0x10	0.10047578
201	0x1b	0.16955288
202	0x21	0.2072313
203	0x11	0.10675552
204	0x22	0.21351103
205	0xc3	-0.3830639
206	0x0f	0.094196044
207	0x1a	0.16327314
208	0x26	0.23862998
209	0x01	0.0062797363
210	0x0b	0.0690771
211	0xf6	-0.06279736
212	0x11	0.10675552
213	0xe6	-0.16327314
214	0xe4	-0.17583261
215	0x22	0.21351103
216	0xfd	-0.018839208
217	0x1a	0.16327314
218	0xd9	-0.24490972
219	0x1c	0.17583261
220	0xde	-0.21351103
221	0x3e	0.38934365
222	0x13	0.11931499
223	0xdf	-0.2072313
224	0x03	0.018839208
225	0x02	0.012559473
226	0xfb	-0.03139868
227	0xf2	-0.08791631
228	0xd5	-0.27002865
229	0x16	0.1381542
230	0xf8	-0.05023789
231	0x12	0.113035254
232	0x3d	0.3830639
233	0xe3	-0.18211235
234	0x44	0.42702207
235	0x3c	0.37678418
236	0xee	-0.113035254
237	0xea	-0.1381542
238	0x02	0.012559473
239	0x06	0.037678417
240	0xf8	-0.05023789
241	0x2e	0.28886786
242	0xdb	-0.23235025
243	0xee	-0.113035254
244	0x1d	0.18211235
245	0xfc	-0.025118945
246	0x02	0.012559473
247	0xff	-0.0062797363
248	0xfe	-0.012559473
249	0x0b	0.0690771
250	0x04	0.025118945
251	0x00	0.0
252	0x30	0.30142733
253	0x15	0.13187446
254	0xf8	-0.05023789
255	0x39	0.35794497

arith.constant1 i1 [20, 20] scale=0.007067991 zero_point=0
0	0x1d	0.20497173
1	0xf8	-0.056543928
2	0xd6	-0.29685563
3	0x2b	0.3039236
4	0x32	0.35339954
5	0x19	0.17669977
6	0xd2	-0.32512757
7	0xe2	-0.21203972
8	0xf5	-0.077747904
9	0xc1	-0.44528344
10	0x09	0.06361192
11	0xda	-0.26858366
12	0x2b	0.3039236
13	0xb6	-0.52303135
14	0x4a	0.52303135
15	0x3d	0.43114746
16	0x0f	0.10601986
17	0xec	-0.14135982
18	0xf9	-0.049475938
19	0x05	0.035339955
20	0xba	-0.49475938
21	0x34	0.36753553
22	0xee	-0.12722383
23	0x0e	0.098951876
24	0x04	0.028271964
25	0xfe	-0.014135982
26	0xe9	-0.16256379
27	0x0c	0.08481589
28	0x0f	0.10601986
29	0xb4	-0.5371673
30	0xf3	-0.09188388
31	0xf4	-0.08481589
32	0x11	0.12015585
33	0xde	-0.2403117
34	0xf3	-0.09188388
35	0x24	0.25444767
36	0x1a	0.18376777
37	0x24	0.25444767
38	0x1f	0.21910772
39	0xc6	-0.40994346
40	0xf8	-0.056543928
41	0x08	0.056543928
42	0x29	0.28978762
43	0xfd	-0.021203972
44	0x1f	0.21910772
45	0xdf	-0.2332437
46	0xe0	-0.22617571
47	0x20	0.22617571
48	0xf9	-0.049475938
49	0xfd	-0.021203972
50	0xe2	-0.21203972
51	0xfd	-0.021203972
52	0xaa	-0.6078472
53	0x07	0.049475938
54	0x03	0.021203972
55	0x1e	0.21203972
56	0xec	-0.14135982
57	0xfa	-0.042407945
58	0x00	0.0
59	0x3b	0.41701147
60	0xfc	-0.028271964
61	0x0d	0.09188388
62	0x32	0.35339954
63	0xef	-0.12015585
64	0x58	0.62198323
65	0xda	-0.26858366
66	0xe1	-0.21910772
67	0xc3	-0.43114746
68	0xee	-0.12722383
69	0xb3	-0.5442353
70	0xb9	-0.50182736
71	0xd0	-0.33926356
72	0x13	0.13429183
73	0x09	0.06361192
74	0x3e	0.43821543
75	0x23	0.24737969
76	0x16	0.15549581
77	0x24	0.25444767
78	0xe8	-0.16963178
79	0x0f	0.10601986
80	0xd4	-0.31099162
81	0xce	-0.35339954
82	0x03	0.021203972
83	0xfe	-0.014135982
84	0x18	0.16963178
85	0x45	0.48769137
86	0x12	0.12722383
87	0xdd	-0.24737969
88	0x09	0.06361192
89	0xc9	-0.3887395
90	0xe9	-0.16256379
91	0x1f	0.21910772
92	0xdd	-0.24737969
93	0xca	-0.38167152
94	0x3a	0.40994346
95	0x1d	0.20497173
96	0x2c	0.31099162
97	0x1b	0.19083576
98	0x31	0.34633157
99	0xac	-0.59371126
100	0x0c	0.08481589
101	0x03	0.021203972
102	0xf2	-0.098951876
103	0x0f	0.10601986
104	0xeb	-0.14842781
105	0xe6	-0.18376777
106	0x19	0.17669977
107	0xd9	-0.27565163
108	0xf7	-0.06361192
109	0xde	-0.2403117
110	0x05	0.035339955
111	0x1e	0.21203972
112	0xc1	-0.44528344
113	0x14	0.14135982
114	0xed	-0.13429183
115	0xaf	-0.57250726
116	0xea	-0.15549581
117	0xff	-0.007067991
118	0xfa	-0.042407945
119	0xaa	-0.6078472
120	0x24	0.25444767
121	0xcc	-0.36753553
122	0xdd	-0.24737969
123	0xf4	-0.08481589
124	0xf4	-0.08481589
125	0xfb	-0.035339955
126	0x2b	0.3039236
127	0xff	-0.007067991
128	0xe5	-0.19083576
129	0xd4	-0.31099162
130	0x00	0.0
131	0xfc	-0.028271964
132	0xe7	-0.17669977
133	0xc0	-0.45235142
134	0xdc	-0.25444767
135	0xd8	-0.28271964
136	0x20	0.22617571
137	0x0e	0.098951876
138	0xdd	-0.24737969
139	0xf1	-0.10601986
140	0xed	-0.13429183
141	0xe2	-0.21203972
142	0xde	-0.2403117
143	0x22	0.2403117
144	0xec	-0.14135982
145	0xfa	-0.042407945
146	0xfb	-0.035339955
147	0xf1	-0.10601986
148	0xec	-0.14135982
149	0x08	0.056543928
150	0x6c	0.76334304
151	0xf0	-0.113087855
152	0xf0	-0.113087855
153	0x08	0.056543928
154	0x01	0.007067991
155	0x31	0.34633157
156	0xf3	-0.09188388
157	0x2e	0.32512757
158	0x3e	0.43821543
159	0x0c	0.08481589
160	0xdf	-0.2332437
161	0xf9	-0.049475938
162	0xfb	-0.035339955
163	0x6d	0.770411
164	0x1a	0.18376777
165	0xb0	-0.5654393
166	0xe5	-0.19083576
167	0xfc	-0.028271964
168	0x35	0.3746035
169	0x0a	0.07067991
170	0x3b	0.41701147
171	0x25	0.26151568
172	0xeb	-0.14842781
173	0xff	-0.007067991
174	0xe2	-0.21203972
175	0x15	0.14842781
176	0x2b	0.3039236
177	0xe1	-0.21910772
178	0x29	0.28978762
179	0x0f	0.10601986
180	0x49	0.5159633
181	0x32	0.35339954
182	0xfc	-0.028271964
183	0x11	0.12015585
184	0x0f	0.10601986
185	0xfa	-0.042407945
186	0x40	0.45235142
187	0xf5	-0.077747904
188	0xf8	-0.056543928
189	0xea	-0.15549581
190	0x2a	0.29685563
191	0xe1	-0.21910772
192	0x26	0.26858366
193	0x17	0.16256379
194	0x47	0.50182736
195	0x41	0.4594194
196	0xea	-0.15549581
197	0x20	0.22617571
198	0xb8	-0.50889534
199	0xd7	-0.28978762
200	0xec	-0.14135982
201	0xb2	-0.55130327
202	0xf0	-0.113087855
203	0x36	0.38167152
204	0x46	0.49475938
205	0xdf	-0.2332437
206	0xfe	-0.014135982
207	0x1c	0.19790375
208	0x03	0.021203972
209	0xdd	-0.24737969
210	0x05	0.035339955
211	0xf3	-0.09188388
212	0x18	0.16963178
213	0x05	0.035339955
214	0x34	0.36753553
215	0xef	-0.12015585
216	0x00	0.0
217	0xe1	-0.21910772
218	0xf5	-0.077747904
219	0xf4	-0.08481589
220	0xb9	-0.50182736
221	0x09	0.06361192
222	0xee	-0.12722383
223	0x1c	0.19790375
224	0x1a	0.18376777
225	0x08	0.056543928
226	0xf4	-0.08481589
227	0x9e	-0.69266313
228	0xec	-0.14135982
229	0x25	0.26151568
230	0xe7	-0.17669977
231	0xec	-0.14135982
232	0xf1	-0.10601986
233	0x01	0.007067991
234	0x0f	0.10601986
235	0x09	0.06361192
236	0xf8	-0.056543928
237	0x08	0.056543928
238	0x25	0.26151568
239	0xd4	-0.31099162
240	0xf2	-0.098951876
241	0xe5	-0.19083576
242	0xdd	-0.24737969
243	0x25	0.26151568
244	0xce	-0.35339954
245	0x1a	0.18376777
246	0x48	0.50889534
247	0xd8	-0.28271964
248	0xf6	-0.07067991
249	0xd8	-0.28271964
250	0xdf	-0.2332437
251	0x21	0.2332437
252	0xed	-0.13429183
253	0xe3	-0.20497173
254	0xd5	-0.3039236
255	0xc9	-0.3887395

arith.constant i1 [20, 20] scale=0.009100102 zero_point=0
0	0x1a	0.23660265
1	0x09	0.08190092
2	0x0c	0.10920122
3	0x0b	0.10010112
4	0x22	0.30940348
5	0xfc	-0.036400408
6	0xfc	-0.036400408
7	0x08	0.072800815
8	0x02	0.018200204
9	0x0a	0.09100102
10	0xcf	-0.445905
11	0x00	0.0
12	0x22	0.30940348
13	0xe8	-0.21840245
14	0xc7	-0.5187058
15	0x48	0.65520734
16	0x03	0.027300306
17	0x04	0.036400408
18	0x04	0.036400408
19	0x51	0.73710823
20	0xd3	-0.4095046
21	0x02	0.018200204
22	0x6e	1.0010113
23	0x0a	0.09100102
24	0x17	0.20930234
25	0xe6	-0.23660265
26	0xcd	-0.4641052
27	0x1f	0.28210315
28	0x04	0.036400408
29	0x27	0.35490397
30	0xb6	-0.67340755
31	0x13	0.17290193
32	0xc9	-0.5005056
33	0xec	-0.18200204
34	0xcc	-0.4732053
35	0xe6	-0.23660265
36	0xf8	-0.072800815
37	0xbc	-0.61880696
38	0x0c	0.10920122
39	0xb5	-0.68250763
40	0xd5	-0.39130437
41	0xc7	-0.5187058
42	0xc1	-0.57330644
43	0x22	0.30940348
44	0x2a	0.3822043
45	0xcb	-0.4823054
46	0xea	-0.20020224
47	0xc6	-0.5278059
48	0xe0	-0.29120326
49	0x09	0.08190092
50	0xf9	-0.06370071
51	0xae	-0.74620837
52	0xe1	-0.28210315
53	0xdd	-0.31850356
54	0x01	0.009100102
55	0xde	-0.30940348
56	0xba	-0.6370071
57	0x1b	0.24570274
58	0x19	0.22750255
59	0x37	0.5005056
60	0xcb	-0.4823054
61	0x1a	0.23660265
62	0x0e	0.12740143
63	0xd7	-0.37310418
64	0xc9	-0.5005056
65	0x0e	0.12740143
66	0x3b	0.536906
67	0x31	0.445905
68	0x3a	0.5278059
69	0x14	0.18200204
70	0x14	0.18200204
71	0xf1	-0.13650152
72	0xba	-0.6370071
73	0x01	0.009100102
74	0xee	-0.16380183
75	0xd6	-0.3822043
76	0x48	0.65520734
77	0x1c	0.25480285
78	0xfa	-0.05460061
79	0x46	0.6370071
80	0xfc	-0.036400408
81	0x00	0.0
82	0xe7	-0.22750255
83	0x6b	0.9737109
84	0xfc	-0.036400408
85	0xe0	-0.29120326
86	0xc4	-0.5460061
87	0x0d	0.118301325
88	0x14	0.18200204
89	0xf8	-0.072800815
90	0x46	0.6370071
91	0xd8	-0.36400408
92	0xf1	-0.13650152
93	0xb9	-0.64610726
94	0x2d	0.4095046
95	0x21	0.30030337
96	0x3e	0.5642063
97	0x42	0.60060674
98	0x13	0.17290193
99	0x2e	0.41860467
100	0x00	0.0
101	0xfe	-0.018200204
102	0x07	0.06370071
103	0x15	0.19110215
104	0xee	-0.16380183
105	0x17	0.20930234
106	0xe0	-0.29120326
107	0x20	0.29120326
108	0x16	0.20020224
109	0xdd	-0.31850356
110	0x43	0.6097068
111	0xac	-0.7644086
112	0xfe	-0.018200204
113	0xd7	-0.37310418
114	0x2e	0.41860467
115	0xff	-0.009100102
116	0xef	-0.15470174
117	0x36	0.4914055
118	0xe1	-0.28210315
119	0x0d	0.118301325
120	0x21	0.30030337
121	0xf0	-0.14560163
122	0xf3	-0.118301325
123	0xd2	-0.41860467
124	0xc7	-0.5187058
125	0x32	0.4550051
126	0x51	0.73710823
127	0xe5	-0.24570274
128	0xfb	-0.04550051
129	0xe7	-0.22750255
130	0x0f	0.13650152
131	0x0e	0.12740143
132	0x06	0.05460061
133	0x40	0.5824065
134	0x0a	0.09100102
135	0xe8	-0.21840245
136	0xa2	-0.85540956
137	0xd5	-0.39130437
138	0xa3	-0.8463095
139	0xb3	-0.70070785
140	0x2e	0.41860467
141	0xef	-0.15470174
142	0xe5	-0.24570274
143	0x5b	0.82810926
144	0x07	0.06370071
145	0x92	-1.0010113
146	0x1d	0.26390296
147	0x05	0.04550051
148	0x05	0.04550051
149	0xd5	-0.39130437
150	0x29	0.37310418
151	0x53	0.75530845
152	0xfc	-0.036400408
153	0x18	0.21840245
154	0xea	-0.20020224
155	0xf1	-0.13650152
156	0x3d	0.5551062
157	0x00	0.0
158	0x07	0.06370071
159	0xf3	-0.118301325
160	0x2b	0.39130437
161	0xed	-0.17290193
162	0x11	0.15470174
163	0x09	0.08190092
164	0xd1	-0.42770478
165	0xd4	-0.40040448
166	0x1a	0.23660265
167	0xbb	-0.62790704
168	0xc2	-0.5642063
169	0x01	0.009100102
170	0xe2	-0.27300304
171	0xec	-0.18200204
172	0x0b	0.10010112
173	0xe2	-0.27300304
174	0xfe	-0.018200204
175	0xdc	-0.32760367
176	0xee	-0.16380183
177	0x36	0.4914055
178	0x0b	0.10010112
179	0x0a	0.09100102
180	0xde	-0.30940348
181	0x42	0.60060674
182	0x24	0.32760367
183	0x23	0.31850356
184	0xe7	-0.22750255
185	0xcd	-0.4641052
186	0xe2	-0.27300304
187	0x56	0.78260875
188	0x09	0.08190092
189	0x23	0.31850356
190	0x07	0.06370071
191	0x37	0.5005056
192	0x2c	0.40040448
193	0xfd	-0.027300306
194	0x24	0.32760367
195	0x37	0.5005056
196	0xf4	-0.10920122
197	0x25	0.33670378
198	0x0c	0.10920122
199	0x0c	0.10920122
200	0xdd	-0.31850356
201	0x22	0.30940348
202	0x35	0.4823054
203	0x09	0.08190092
204	0xf4	-0.10920122
205	0x13	0.17290193
206	0xfe	-0.018200204
207	0x17	0.20930234
208	0xf9	-0.06370071
209	0x2e	0.41860467
210	0x4c	0.6916077
211	0xf8	-0.072800815
212	0xf4	-0.10920122
213	0x2a	0.3822043
214	0x13	0.17290193
215	0x07	0.06370071
216	0xf1	-0.13650152
217	0xb9	-0.64610726
218	0x1a	0.23660265
219	0xe6	-0.23660265
220	0xc6	-0.5278059
221	0xee	-0.16380183
222	0xf6	-0.09100102
223	0x29	0.37310418
224	0x30	0.4368049
225	0xfb	-0.04550051
226	0x29	0.37310418
227	0x1b	0.24570274
228	0xf1	-0.13650152
229	0x17	0.20930234
230	0x22	0.30940348
231	0xfd	-0.027300306
232	0xc6	-0.5278059
233	0x34	0.4732053
234	0xfa	-0.05460061
235	0xa7	-0.80990905
236	0x0f	0.13650152
237	0xb6	-0.67340755
238	0xe3	-0.26390296
239	0xb0	-0.72800815
240	0xe7	-0.22750255
241	0x11	0.15470174
242	0x17	0.20930234
243	0x13	0.17290193
244	0x2a	0.3822043
245	0xe8	-0.21840245
246	0x20	0.29120326
247	0xfd	-0.027300306
248	0xfb	-0.04550051
249	0xcc	-0.4732053
250	0x11	0.15470174
251	0x05	0.04550051
252	0x07	0.06370071
253	0xce	-0.4550051
254	0xee	-0.16380183
255	0x11	0.15470174

arith.constant11 i1 [20, 28] scale=0.013885938 zero_point=0
0	0xf5	-0.1527453
1	0xea	-0.3054906
2	0x07	0.09720156
3	0x17	0.31937656
4	0x15	0.2916047
5	0x03	0.041657813
6	0xe8	-0.3332625
7	0x01	0.013885938
8	0x16	0.3054906
9	0x26	0.5276656
10	0x2e	0.6387531
11	0x11	0.23606095
12	0xe2	-0.4165781
13	0xcc	-0.7220688
14	0xe5	-0.3749203
15	0xff	-0.013885938
16	0xf5	-0.1527453
17	0xf6	-0.13885938
18	0x02	0.027771875
19	0x1d	0.4026922
20	0x20	0.44435
21	0x07	0.09720156
22	0x00	0.0
23	0xfa	-0.083315626
24	0xfc	-0.05554375
25	0xfa	-0.083315626
26	0x13	0.2638328
27	0x0a	0.13885938
28	0xf5	-0.1527453
29	0x04	0.05554375
30	0xdf	-0.45823595
31	0xcf	-0.6804109
32	0xe0	-0.44435
33	0xd0	-0.666525
34	0xe7	-0.34714845
35	0xf1	-0.20828906
36	0xed	-0.2638328
37	0xeb	-0.2916047
38	0x09	0.12497344
39	0x40	0.8887
40	0x3b	0.8192703
41	0x36	0.7498406
42	0x21	0.45823595
43	0x1f	0.43046406
44	0x28	0.5554375
45	0x22	0.4721219
46	0x21	0.45823595
47	0x11	0.23606095
48	0xd8	-0.5554375
49	0xf6	-0.13885938
50	0x04	0.05554375
51	0xfe	-0.027771875
52	0xf3	-0.1805172
53	0xfc	-0.05554375
54	0xdd	-0.4860078
55	0xf9	-0.09720156
56	0x04	0.05554375
57	0xfd	-0.041657813
58	0x09	0.12497344
59	0xfe	-0.027771875
60	0xf5	-0.1527453
61	0xf2	-0.19440313
62	0x0b	0.1527453
63	0x2e	0.6387531
64	0x18	0.3332625
65	0xf5	-0.1527453
66	0xf7	-0.12497344
67	0xe5	-0.3749203
68	0xf9	-0.09720156
69	0x1d	0.4026922
70	0x0b	0.1527453
71	0xf8	-0.1110875
72	0xf3	-0.1805172
73	0xee	-0.24994688
74	0x19	0.34714845
75	0x1b	0.3749203
76	0x43	0.9303578
77	0x28	0.5554375
78	0x27	0.5415516
79	0x29	0.5693234
80	0xff	-0.013885938
81	0x14	0.27771875
82	0x43	0.9303578
83	0xfa	-0.083315626
84	0xf8	-0.1110875
85	0x12	0.24994688
86	0x10	0.222175
87	0x2e	0.6387531
88	0xfd	-0.041657813
89	0xe5	-0.3749203
90	0x07	0.09720156
91	0xeb	-0.2916047
92	0xfe	-0.027771875
93	0xfd	-0.041657813
94	0x15	0.2916047
95	0x08	0.1110875
96	0x31	0.6804109
97	0x15	0.2916047
98	0xe5	-0.3749203
99	0xd5	-0.5970953
100	0xf6	-0.13885938
101	0x16	0.3054906
102	0x2c	0.6109812
103	0x12	0.24994688
104	0xe4	-0.38880625
105	0xde	-0.4721219
106	0xed	-0.2638328
107	0x06	0.083315626
108	0x20	0.44435
109	0x27	0.5415516
110	0xf9	-0.09720156
111	0xea	-0.3054906
112	0x15	0.2916047
113	0xfe	-0.027771875
114	0xed	-0.2638328
115	0xf6	-0.13885938
116	0x0d	0.1805172
117	0x07	0.09720156
118	0x0c	0.16663125
119	0x0e	0.19440313
120	0x0e	0.19440313
121	0x0c	0.16663125
122	0x01	0.013885938
123	0x18	0.3332625
124	0x10	0.222175
125	0x0e	0.19440313
126	0x17	0.31937656
127	0x01	0.013885938
128	0x26	0.5276656
129	0x2b	0.5970953
130	0x62	1.3608218
131	0x36	0.7498406
132	0x12	0.24994688
133	0xfb	-0.06942969
134	0x0c	0.16663125
135	0x15	0.2916047
136	0x15	0.2916047
137	0xff	-0.013885938
138	0x25	0.5137797
139	0xf7	-0.12497344
140	0xff	-0.013885938
141	0x0c	0.16663125
142	0x2e	0.6387531
143	0x0a	0.13885938
144	0xe1	-0.43046406
145	0xe1	-0.43046406
146	0xf5	-0.1527453
147	0xef	-0.23606095
148	0xfa	-0.083315626
149	0xef	-0.23606095
150	0xd4	-0.6109812
151	0xe2	-0.4165781
152	0x07	0.09720156
153	0x18	0.3332625
154	0x16	0.3054906
155	0xf4	-0.16663125
156	0xf8	-0.1110875
157	0xee	-0.24994688
158	0x2c	0.6109812
159	0x53	1.1525328
160	0x66	1.4163656
161	0x4e	1.0831032
162	0x43	0.9303578
163	0x15	0.2916047
164	0x06	0.083315626
165	0xfe	-0.027771875
166	0xfb	-0.06942969
167	0xee	-0.24994688
168	0xfe	-0.027771875
169	0xfc	-0.05554375
170	0x1c	0.38880625
171	0x3a	0.8053844
172	0x37	0.7637266
173	0xf5	-0.1527453
174	0x0d	0.1805172
175	0x13	0.2638328
176	0x03	0.041657813
177	0x11	0.23606095
178	0x12	0.24994688
179	0x23	0.4860078
180	0x17	0.31937656
181	0x13	0.2638328
182	0x07	0.09720156
183	0x39	0.7914984
184	0x7d	1.7357422
185	0x7f	1.763514
186	0x06	0.083315626
187	0xcc	-0.7220688
188	0xc1	-0.8748141
189	0xd4	-0.6109812
190	0xf8	-0.1110875
191	0x08	0.1110875
192	0xfc	-0.05554375
193	0xf3	-0.1805172
194	0x08	0.1110875
195	0xe0	-0.44435
196	0x09	0.12497344
197	0x1e	0.4165781
198	0x0a	0.13885938
199	0x0b	0.1527453
200	0x21	0.45823595
201	0x01	0.013885938
202	0xf6	-0.13885938
203	0x05	0.06942969
204	0x10	0.222175
205	0x02	0.027771875
206	0x17	0.31937656
207	0x2e	0.6387531
208	0x2d	0.6248672
209	0x32	0.6942969
210	0x30	0.666525
211	0xfb	-0.06942969
212	0xd0	-0.666525
213	0xd9	-0.5415516
214	0x06	0.083315626
215	0xf1	-0.20828906
216	0xf9	-0.09720156
217	0x02	0.027771875
218	0xeb	-0.2916047
219	0xda	-0.5276656
220	0xff	-0.013885938
221	0x2b	0.5970953
222	0x3f	0.8748141
223	0x13	0.2638328
224	0x13	0.2638328
225	0xfc	-0.05554375
226	0x18	0.3332625
227	0x05	0.06942969
228	0x1a	0.3610344
229	0x10	0.222175
230	0x0c	0.16663125
231	0x03	0.041657813
232	0xf8	-0.1110875
233	0xfd	-0.041657813
234	0xfd	-0.041657813
235	0xf1	-0.20828906
236	0xe5	-0.3749203
237	0xdf	-0.45823595
238	0xdd	-0.4860078
239	0xd4	-0.6109812
240	0xd5	-0.5970953
241	0xd8	-0.5554375
242	0x06	0.083315626
243	0xef	-0.23606095
244	0xea	-0.3054906
245	0x10	0.222175
246	0x00	0.0
247	0x0d	0.1805172
248	0xea	-0.3054906
249	0xe5	-0.3749203
250	0xc8	-0.7776125
251	0xfa	-0.083315626
252	0x0c	0.16663125
253	0x13	0.2638328
254	0xfd	-0.041657813
255	0x30	0.666525

arith.constant10 i1 [20, 28] scale=0.010513519 zero_point=0
0	0xf1	-0.15770279
1	0xf8	-0.08410815
2	0x0b	0.11564871
3	0xfe	-0.021027038
4	0x11	0.17872982
5	0x1f	0.3259191
6	0x0e	0.14718926
7	0x11	0.17872982
8	0xf1	-0.15770279
9	0x15	0.2207839
10	0x02	0.021027038
11	0x0e	0.14718926
12	0xe7	-0.26283798
13	0xa8	-0.9251897
14	0xfd	-0.031540558
15	0x1f	0.3259191
16	0x22	0.35745963
17	0x07	0.07359463
18	0x01	0.010513519
19	0x0c	0.12616223
20	0x1c	0.29437852
21	0x08	0.08410815
22	0x0c	0.12616223
23	0x00	0.0
24	0x21	0.34694612
25	0x09	0.09462167
26	0x07	0.07359463
27	0x24	0.3784867
28	0xf9	-0.07359463
29	0xfb	-0.052567594
30	0x17	0.24181093
31	0x0b	0.11564871
32	0x04	0.042054076
33	0x19	0.26283798
34	0x11	0.17872982
35	0x03	0.031540558
36	0x0d	0.13667575
37	0x11	0.17872982
38	0xfe	-0.021027038
39	0x06	0.063081115
40	0xf0	-0.1682163
41	0xdc	-0.3784867
42	0xd9	-0.41002724
43	0xe5	-0.283865
44	0xf0	-0.1682163
45	0xf7	-0.09462167
46	0xfe	-0.021027038
47	0x0d	0.13667575
48	0x0a	0.10513519
49	0x13	0.19975686
50	0xf6	-0.10513519
51	0x11	0.17872982
52	0x18	0.25232446
53	0x1c	0.29437852
54	0xf9	-0.07359463
55	0x11	0.17872982
56	0xdc	-0.3784867
57	0xff	-0.010513519
58	0xdb	-0.3890002
59	0x06	0.063081115
60	0x04	0.042054076
61	0x03	0.031540558
62	0x08	0.08410815
63	0xf1	-0.15770279
64	0x1a	0.2733515
65	0x03	0.031540558
66	0x16	0.23129742
67	0x0a	0.10513519
68	0x15	0.2207839
69	0xe8	-0.25232446
70	0xdd	-0.36797315
71	0xff	-0.010513519
72	0x1b	0.283865
73	0x38	0.58875704
74	0x1c	0.29437852
75	0x15	0.2207839
76	0xf6	-0.10513519
77	0x11	0.17872982
78	0x07	0.07359463
79	0xf1	-0.15770279
80	0xe7	-0.26283798
81	0xe1	-0.3259191
82	0x05	0.052567594
83	0xce	-0.52567595
84	0x04	0.042054076
85	0xf8	-0.08410815
86	0xf8	-0.08410815
87	0xf4	-0.12616223
88	0xfb	-0.052567594
89	0xef	-0.17872982
90	0x02	0.021027038
91	0x05	0.052567594
92	0xf3	-0.13667575
93	0xf8	-0.08410815
94	0xee	-0.18924335
95	0x03	0.031540558
96	0xee	-0.18924335
97	0x15	0.2207839
98	0x24	0.3784867
99	0x42	0.69389224
100	0xfc	-0.042054076
101	0xd7	-0.43105426
102	0xd8	-0.42054075
103	0xdb	-0.3890002
104	0xe7	-0.26283798
105	0xe6	-0.2733515
106	0x0d	0.13667575
107	0x48	0.7569734
108	0x1b	0.283865
109	0x0a	0.10513519
110	0x29	0.43105426
111	0xec	-0.21027038
112	0x1e	0.31540558
113	0x1f	0.3259191
114	0xf6	-0.10513519
115	0x18	0.25232446
116	0x00	0.0
117	0xff	-0.010513519
118	0x0d	0.13667575
119	0x11	0.17872982
120	0x1f	0.3259191
121	0x1d	0.30489206
122	0x2e	0.48362187
123	0x15	0.2207839
124	0x1a	0.2733515
125	0xfe	-0.021027038
126	0x0d	0.13667575
127	0x19	0.26283798
128	0xf1	-0.15770279
129	0xda	-0.39951372
130	0xea	-0.23129742
131	0xdb	-0.3890002
132	0xe2	-0.31540558
133	0xd6	-0.4415678
134	0xcf	-0.5151624
135	0xdc	-0.3784867
136	0xdc	-0.3784867
137	0xfd	-0.031540558
138	0xf1	-0.15770279
139	0x01	0.010513519
140	0xe5	-0.283865
141	0xe6	-0.2733515
142	0x15	0.2207839
143	0xff	-0.010513519
144	0x07	0.07359463
145	0xef	-0.17872982
146	0x1c	0.29437852
147	0xfd	-0.031540558
148	0xef	-0.17872982
149	0xfe	-0.021027038
150	0x00	0.0
151	0x0a	0.10513519
152	0xef	-0.17872982
153	0xde	-0.35745963
154	0xef	-0.17872982
155	0xca	-0.56773
156	0xd4	-0.46259484
157	0xdf	-0.34694612
158	0xfc	-0.042054076
159	0x0e	0.14718926
160	0xff	-0.010513519
161	0xf9	-0.07359463
162	0x05	0.052567594
163	0xfb	-0.052567594
164	0xf5	-0.11564871
165	0xc7	-0.5992706
166	0xf6	-0.10513519
167	0x3b	0.6202976
168	0x17	0.24181093
169	0x06	0.063081115
170	0xf3	-0.13667575
171	0x06	0.063081115
172	0x0d	0.13667575
173	0x03	0.031540558
174	0xfd	-0.031540558
175	0xf4	-0.12616223
176	0x06	0.063081115
177	0xf7	-0.09462167
178	0x04	0.042054076
179	0xe1	-0.3259191
180	0xc0	-0.6728652
181	0xcb	-0.5572165
182	0xe7	-0.26283798
183	0x0e	0.14718926
184	0xfc	-0.042054076
185	0x01	0.010513519
186	0xf6	-0.10513519
187	0xe3	-0.30489206
188	0x04	0.042054076
189	0x0c	0.12616223
190	0xf3	-0.13667575
191	0x04	0.042054076
192	0x06	0.063081115
193	0x02	0.021027038
194	0xd0	-0.5046489
195	0x1c	0.29437852
196	0x14	0.21027038
197	0x2d	0.47310835
198	0x2c	0.46259484
199	0xe0	-0.3364326
200	0xed	-0.19975686
201	0x01	0.010513519
202	0xf7	-0.09462167
203	0x03	0.031540558
204	0x0e	0.14718926
205	0xf3	-0.13667575
206	0x08	0.08410815
207	0xdd	-0.36797315
208	0xe7	-0.26283798
209	0xe9	-0.24181093
210	0xfd	-0.031540558
211	0x06	0.063081115
212	0x0d	0.13667575
213	0x16	0.23129742
214	0x34	0.546703
215	0x04	0.042054076
216	0x06	0.063081115
217	0xfb	-0.052567594
218	0xf6	-0.10513519
219	0xf6	-0.10513519
220	0x0d	0.13667575
221	0xf3	-0.13667575
222	0x06	0.063081115
223	0xf8	-0.08410815
224	0xed	-0.19975686
225	0xd2	-0.48362187
226	0x09	0.09462167
227	0x10	0.1682163
228	0x0d	0.13667575
229	0xf7	-0.09462167
230	0xef	-0.17872982
231	0xf9	-0.07359463
232	0xf9	-0.07359463
233	0xe5	-0.283865
234	0x05	0.052567594
235	0x06	0.063081115
236	0xe8	-0.25232446
237	0xd7	-0.43105426
238	0x12	0.18924335
239	0x2e	0.48362187
240	0x14	0.21027038
241	0x2a	0.4415678
242	0x2c	0.46259484
243	0x32	0.52567595
244	0x4d	0.809541
245	0x35	0.5572165
246	0x1e	0.31540558
247	0x2f	0.49413538
248	0x04	0.042054076
249	0xfb	-0.052567594
250	0xe8	-0.25232446
251	0x2d	0.47310835
252	0xcf	-0.5151624
253	0x00	0.0
254	0x28	0.42054075
255	0x25	0.3890002

arith.constant9 i1 [20, 28] scale=0.011004767 zero_point=0
0	0xfa	-0.0660286
1	0x02	0.022009535
2	0xfd	-0.0330143
3	0xef	-0.18708104
4	0xdf	-0.36315733
5	0xec	-0.22009535
6	0xd2	-0.5062193
7	0xe7	-0.2751192
8	0xf2	-0.15406674
9	0xe8	-0.2641144
10	0xfd	-0.0330143
11	0xe8	-0.2641144
12	0xba	-0.7703337
13	0xa4	-1.0124387
14	0xb8	-0.79234326
15	0xdf	-0.36315733
16	0xea	-0.24210489
17	0xf3	-0.14306198
18	0xff	-0.011004767
19	0xfe	-0.022009535
20	0xfd	-0.0330143
21	0x27	0.42918593
22	0x0f	0.16507152
23	0x18	0.2641144
24	0x13	0.20909058
25	0x31	0.5392336
26	0x2e	0.5062193
27	0xf1	-0.16507152
28	0x0b	0.121052444
29	0x05	0.055023838
30	0xb1	-0.8693766
31	0xeb	-0.23110011
32	0xfd	-0.0330143
33	0x00	0.0
34	0xef	-0.18708104
35	0xfe	-0.022009535
36	0x06	0.0660286
37	0x0c	0.1320572
38	0x12	0.19808581
39	0xeb	-0.23110011
40	0xe8	-0.2641144
41	0xe2	-0.33014303
42	0xe5	-0.2971287
43	0xfe	-0.022009535
44	0x06	0.0660286
45	0x0c	0.1320572
46	0x05	0.055023838
47	0xf6	-0.110047676
48	0xf1	-0.16507152
49	0xf3	-0.14306198
50	0x04	0.04401907
51	0x0a	0.110047676
52	0xed	-0.20909058
53	0x03	0.0330143
54	0x1d	0.31913826
55	0x29	0.45119545
56	0x02	0.022009535
57	0x09	0.09904291
58	0x11	0.18708104
59	0xec	-0.22009535
60	0x14	0.22009535
61	0xfa	-0.0660286
62	0xeb	-0.23110011
63	0x0f	0.16507152
64	0x0c	0.1320572
65	0x08	0.08803814
66	0xf2	-0.15406674
67	0x08	0.08803814
68	0x0a	0.110047676
69	0x18	0.2641144
70	0x1e	0.33014303
71	0x1a	0.28612396
72	0x09	0.09904291
73	0x03	0.0330143
74	0xef	-0.18708104
75	0x0c	0.1320572
76	0xe9	-0.25310966
77	0xdd	-0.38516685
78	0xe3	-0.31913826
79	0x05	0.055023838
80	0xd7	-0.45119545
81	0xe7	-0.2751192
82	0x15	0.23110011
83	0x0a	0.110047676
84	0x06	0.0660286
85	0xf6	-0.110047676
86	0xe1	-0.34114778
87	0x21	0.36315733
88	0xed	-0.20909058
89	0x0d	0.14306198
90	0x1f	0.34114778
91	0xed	-0.20909058
92	0xfc	-0.04401907
93	0xfb	-0.055023838
94	0x05	0.055023838
95	0x16	0.24210489
96	0x0e	0.15406674
97	0x16	0.24210489
98	0xfe	-0.022009535
99	0xee	-0.19808581
100	0xc4	-0.66028607
101	0xf1	-0.16507152
102	0x0a	0.110047676
103	0x1a	0.28612396
104	0x13	0.20909058
105	0x03	0.0330143
106	0xe3	-0.31913826
107	0xf1	-0.16507152
108	0x2d	0.49521452
109	0x24	0.39617163
110	0x12	0.19808581
111	0xc1	-0.69330037
112	0x1d	0.31913826
113	0x00	0.0
114	0x23	0.38516685
115	0x08	0.08803814
116	0xf1	-0.16507152
117	0x21	0.36315733
118	0x30	0.5282288
119	0x31	0.5392336
120	0x28	0.4401907
121	0x1b	0.2971287
122	0x10	0.17607628
123	0x09	0.09904291
124	0x13	0.20909058
125	0xd9	-0.42918593
126	0xc9	-0.6052622
127	0xe2	-0.33014303
128	0xf6	-0.110047676
129	0xf6	-0.110047676
130	0xfc	-0.04401907
131	0xfa	-0.0660286
132	0xfa	-0.0660286
133	0xfd	-0.0330143
134	0xfc	-0.04401907
135	0xed	-0.20909058
136	0xf4	-0.1320572
137	0xff	-0.011004767
138	0x10	0.17607628
139	0xfa	-0.0660286
140	0x08	0.08803814
141	0xff	-0.011004767
142	0xe4	-0.30813348
143	0xe7	-0.2751192
144	0xec	-0.22009535
145	0xe8	-0.2641144
146	0xfc	-0.04401907
147	0x03	0.0330143
148	0x2c	0.48420978
149	0x25	0.4071764
150	0x0f	0.16507152
151	0x0f	0.16507152
152	0x17	0.25310966
153	0x1a	0.28612396
154	0x31	0.5392336
155	0x1c	0.30813348
156	0x02	0.022009535
157	0xd0	-0.5282288
158	0xdd	-0.38516685
159	0xf4	-0.1320572
160	0xfe	-0.022009535
161	0x00	0.0
162	0x07	0.07703337
163	0x11	0.18708104
164	0x3e	0.68229556
165	0x52	0.9023909
166	0x0d	0.14306198
167	0xdd	-0.38516685
168	0x21	0.36315733
169	0x03	0.0330143
170	0x0d	0.14306198
171	0x01	0.011004767
172	0xe4	-0.30813348
173	0xf0	-0.17607628
174	0xf0	-0.17607628
175	0xf6	-0.110047676
176	0x05	0.055023838
177	0x04	0.04401907
178	0xec	-0.22009535
179	0xce	-0.5502384
180	0xdc	-0.39617163
181	0x0a	0.110047676
182	0x02	0.022009535
183	0xde	-0.37416208
184	0x01	0.011004767
185	0xf3	-0.14306198
186	0x1c	0.30813348
187	0x0b	0.121052444
188	0x0d	0.14306198
189	0x1f	0.34114778
190	0x0e	0.15406674
191	0xfc	-0.04401907
192	0xfc	-0.04401907
193	0x1a	0.28612396
194	0x6d	1.1995196
195	0x0f	0.16507152
196	0xf3	-0.14306198
197	0x44	0.74832416
198	0x16	0.24210489
199	0x17	0.25310966
200	0x23	0.38516685
201	0x27	0.42918593
202	0x06	0.0660286
203	0x10	0.17607628
204	0x2d	0.49521452
205	0x36	0.5942574
206	0x40	0.7043051
207	0xfe	-0.022009535
208	0xe0	-0.35215256
209	0xd8	-0.4401907
210	0xfc	-0.04401907
211	0xeb	-0.23110011
212	0xca	-0.5942574
213	0xca	-0.5942574
214	0xd2	-0.5062193
215	0xe7	-0.2751192
216	0x1d	0.31913826
217	0x46	0.7703337
218	0x29	0.45119545
219	0xff	-0.011004767
220	0x5c	1.0124387
221	0x2e	0.5062193
222	0x42	0.72631466
223	0x55	0.93540525
224	0x0c	0.1320572
225	0x09	0.09904291
226	0x11	0.18708104
227	0xdd	-0.38516685
228	0xe7	-0.2751192
229	0xc8	-0.61626697
230	0xe4	-0.30813348
231	0xdf	-0.36315733
232	0xd8	-0.4401907
233	0xee	-0.19808581
234	0x0c	0.1320572
235	0xf5	-0.121052444
236	0xf2	-0.15406674
237	0xe5	-0.2971287
238	0xe8	-0.2641144
239	0xe5	-0.2971287
240	0xdd	-0.38516685
241	0xe7	-0.2751192
242	0xca	-0.5942574
243	0x07	0.07703337
244	0x19	0.2751192
245	0x3c	0.66028607
246	0x5f	1.045453
247	0x7f	1.3976054
248	0x3b	0.64928126
249	0x30	0.5282288
250	0x12	0.19808581
251	0xb3	-0.8473671
252	0x2c	0.48420978
253	0x02	0.022009535
254	0x12	0.19808581
255	0xe5	-0.2971287

arith.constant8 i1 [20, 28] scale=0.010303226 zero_point=0
0	0x0f	0.15454839
1	0x01	0.010303226
2	0xfa	-0.06181936
3	0x10	0.16485162
4	0xea	-0.22667098
5	0xe6	-0.2678839
6	0xd7	-0.42243227
7	0xf0	-0.16485162
8	0xe8	-0.24727744
9	0x0e	0.14424516
10	0x45	0.7109226
11	0x41	0.6697097
12	0x04	0.041212905
13	0xee	-0.18545808
14	0xf0	-0.16485162
15	0xd8	-0.41212904
16	0xe0	-0.32970324
17	0xd3	-0.4636452
18	0xe5	-0.2781871
19	0x02	0.020606453
20	0x16	0.22667098
21	0x11	0.17515485
22	0xfc	-0.041212905
23	0x0a	0.10303226
24	0x2f	0.48425165
25	0xef	-0.17515485
26	0x01	0.010303226
27	0x36	0.5563742
28	0xd2	-0.47394842
29	0xfc	-0.041212905
30	0xdc	-0.37091616
31	0xd9	-0.40182582
32	0xd7	-0.42243227
33	0xf2	-0.14424516
34	0xff	-0.010303226
35	0xfd	-0.03090968
36	0x00	0.0
37	0xf0	-0.16485162
38	0xdf	-0.34000647
39	0xf2	-0.14424516
40	0x3c	0.61819357
41	0x10	0.16485162
42	0xec	-0.20606452
43	0xf7	-0.09272904
44	0x00	0.0
45	0xfc	-0.041212905
46	0x05	0.05151613
47	0x1f	0.3194
48	0x15	0.21636775
49	0x17	0.23697421
50	0x3a	0.5975871
51	0x22	0.3503097
52	0x10	0.16485162
53	0xf4	-0.12363872
54	0xf5	-0.11333549
55	0xeb	-0.21636775
56	0xf7	-0.09272904
57	0x05	0.05151613
58	0x02	0.020606453
59	0xff	-0.010303226
60	0xf2	-0.14424516
61	0x3d	0.6284968
62	0x35	0.546071
63	0x40	0.6594065
64	0x3f	0.6491033
65	0x01	0.010303226
66	0xd4	-0.45334196
67	0xec	-0.20606452
68	0xf4	-0.12363872
69	0x0c	0.12363872
70	0x3d	0.6284968
71	0x0a	0.10303226
72	0x2d	0.4636452
73	0x18	0.24727744
74	0x26	0.3915226
75	0x25	0.3812194
76	0x24	0.37091616
77	0xea	-0.22667098
78	0x01	0.010303226
79	0x36	0.5563742
80	0x27	0.40182582
81	0xfe	-0.020606453
82	0x1b	0.2781871
83	0x1e	0.30909678
84	0x0a	0.10303226
85	0x49	0.7521355
86	0x15	0.21636775
87	0x4b	0.772742
88	0x11	0.17515485
89	0xf6	-0.10303226
90	0x0a	0.10303226
91	0xfc	-0.041212905
92	0x26	0.3915226
93	0x05	0.05151613
94	0xf7	-0.09272904
95	0xf7	-0.09272904
96	0x29	0.42243227
97	0x12	0.18545808
98	0x23	0.36061293
99	0xe3	-0.29879355
100	0xc8	-0.57698065
101	0xf1	-0.15454839
102	0xf4	-0.12363872
103	0xd9	-0.40182582
104	0x93	-1.1230516
105	0xa4	-0.94789684
106	0xcc	-0.5357678
107	0x1b	0.2781871
108	0x59	0.9169871
109	0x7f	1.3085097
110	0x4c	0.7830452
111	0xae	-0.84486455
112	0xed	-0.1957613
113	0x14	0.20606452
114	0x71	1.1642646
115	0x09	0.09272904
116	0xe4	-0.28849033
117	0xde	-0.3503097
118	0xe4	-0.28849033
119	0xe1	-0.3194
120	0xe9	-0.23697421
121	0xd2	-0.47394842
122	0x05	0.05151613
123	0x2b	0.44303873
124	0x22	0.3503097
125	0x05	0.05151613
126	0xf8	-0.08242581
127	0xd8	-0.41212904
128	0xc3	-0.6284968
129	0xe4	-0.28849033
130	0xe0	-0.32970324
131	0xfc	-0.041212905
132	0xce	-0.51516134
133	0xde	-0.3503097
134	0xce	-0.51516134
135	0xdc	-0.37091616
136	0xed	-0.1957613
137	0xfb	-0.05151613
138	0xe7	-0.25758067
139	0x49	0.7521355
140	0xcf	-0.5048581
141	0x06	0.06181936
142	0x25	0.3812194
143	0x19	0.25758067
144	0xc9	-0.56667745
145	0xf9	-0.07212258
146	0x1c	0.28849033
147	0xea	-0.22667098
148	0xec	-0.20606452
149	0xdd	-0.36061293
150	0xf5	-0.11333549
151	0x05	0.05151613
152	0xf9	-0.07212258
153	0x0e	0.14424516
154	0x00	0.0
155	0x0d	0.13394195
156	0xfe	-0.020606453
157	0x06	0.06181936
158	0x2f	0.48425165
159	0xf2	-0.14424516
160	0x06	0.06181936
161	0xf8	-0.08242581
162	0x18	0.24727744
163	0x29	0.42243227
164	0x5b	0.9375936
165	0x18	0.24727744
166	0x06	0.06181936
167	0xf4	-0.12363872
168	0xed	-0.1957613
169	0x13	0.1957613
170	0x18	0.24727744
171	0x2b	0.44303873
172	0xfd	-0.03090968
173	0xe2	-0.30909678
174	0xfa	-0.06181936
175	0xf3	-0.13394195
176	0xf7	-0.09272904
177	0x0b	0.11333549
178	0x1a	0.2678839
179	0x16	0.22667098
180	0x1b	0.2781871
181	0x46	0.72122586
182	0x78	1.2363871
183	0x5f	0.9788065
184	0x4c	0.7830452
185	0x52	0.84486455
186	0x49	0.7521355
187	0xfc	-0.041212905
188	0xf9	-0.07212258
189	0x0b	0.11333549
190	0x14	0.20606452
191	0xed	-0.1957613
192	0x05	0.05151613
193	0x29	0.42243227
194	0x02	0.020606453
195	0xdf	-0.34000647
196	0x0e	0.14424516
197	0x2a	0.4327355
198	0xf0	-0.16485162
199	0x18	0.24727744
200	0xd5	-0.44303873
201	0xd0	-0.49455488
202	0xfe	-0.020606453
203	0xf2	-0.14424516
204	0xff	-0.010303226
205	0xf8	-0.08242581
206	0x16	0.22667098
207	0x18	0.24727744
208	0x38	0.57698065
209	0x2a	0.4327355
210	0x1e	0.30909678
211	0x17	0.23697421
212	0xdc	-0.37091616
213	0xfa	-0.06181936
214	0x23	0.36061293
215	0xfd	-0.03090968
216	0x37	0.56667745
217	0x3a	0.5975871
218	0x32	0.51516134
219	0x13	0.1957613
220	0x36	0.5563742
221	0xfc	-0.041212905
222	0x44	0.7006194
223	0x47	0.73152906
224	0x07	0.07212258
225	0x1c	0.28849033
226	0x3a	0.5975871
227	0x22	0.3503097
228	0x3a	0.5975871
229	0x38	0.57698065
230	0x1f	0.3194
231	0x2f	0.48425165
232	0xfc	-0.041212905
233	0xe7	-0.25758067
234	0xb9	-0.73152906
235	0xcf	-0.5048581
236	0xc7	-0.5872839
237	0xf4	-0.12363872
238	0xf9	-0.07212258
239	0x2f	0.48425165
240	0x22	0.3503097
241	0x03	0.03090968
242	0x39	0.5872839
243	0x3b	0.60789037
244	0x48	0.7418323
245	0x1c	0.28849033
246	0x53	0.8551678
247	0x46	0.72122586
248	0x22	0.3503097
249	0x0c	0.12363872
250	0xf5	-0.11333549
251	0xd8	-0.41212904
252	0xf8	-0.08242581
253	0x33	0.52546453
254	0x2d	0.4636452
255	0x0a	0.10303226
