Code/04_Bilderkennung/mnist_lstm_quant.tflite (tflite, 13992 bytes, 9 tensors)

tfl.pseudo_qconst1 i1 [10, 560] scale=0.007931752 zero_point=0
0	0x22	0.26967958
1	0xeb	-0.16656679
2	0xe2	-0.23795256
3	0xe1	-0.24588431
4	0xfb	-0.039658763
5	0x0c	0.095181026
6	0xd3	-0.35692886
7	0xd5	-0.34106535
8	0x13	0.1507033
9	0xe6	-0.20622556
10	0x0d	0.10311278
11	0x06	0.047590513
12	0xe8	-0.19036205
13	0x06	0.047590513
14	0x14	0.15863505
15	0x20	0.25381607
16	0x12	0.14277154
17	0x03	0.023795256
18	0x24	0.28554308
19	0xe9	-0.1824303
20	0x27	0.30933833
21	0xd7	-0.32520184
22	0xd8	-0.3172701
23	0xe3	-0.2300208
24	0xe5	-0.21415731
25	0x0b	0.08724927
26	0xc7	-0.45210987
27	0xcf	-0.38865584
28	0x18	0.19036205
29	0xd3	-0.35692886
30	0xed	-0.1507033
31	0x15	0.16656679
32	0xce	-0.3965876
33	0x00	0.0
34	0x19	0.1982938
35	0x0d	0.10311278
36	0x26	0.3014066
37	0x4a	0.58694965
38	0x29	0.32520184
39	0xf0	-0.12690803
40	0x2b	0.34106535
41	0x22	0.26967958
42	0xfd	-0.023795256
43	0x09	0.07138577
44	0x14	0.15863505
45	0x11	0.13483979
46	0x16	0.17449854
47	0xcf	-0.38865584
48	0x04	0.03172701
49	0xf8	-0.06345402
50	0x05	0.039658763
51	0xd4	-0.3489971
52	0x19	0.1982938
53	0x43	0.5314274
54	0x0a	0.079317525
55	0xfa	-0.047590513
56	0x17	0.1824303
57	0xe7	-0.1982938
58	0x1d	0.2300208
59	0x2d	0.35692886
60	0xeb	-0.16656679
61	0x10	0.12690803
62	0x11	0.13483979
63	0x10	0.12690803
64	0x29	0.32520184
65	0x02	0.015863504
66	0x28	0.3172701
67	0xf3	-0.10311278
68	0xb8	-0.57108617
69	0x1a	0.20622556
70	0x33	0.40451935
71	0xf6	-0.079317525
72	0x34	0.41245112
73	0x3a	0.4600416
74	0x05	0.039658763
75	0xe4	-0.22208905
76	0xfb	-0.039658763
77	0x03	0.023795256
78	0xf5	-0.08724927
79	0x30	0.3807241
80	0xf0	-0.12690803
81	0xfe	-0.015863504
82	0xfd	-0.023795256
83	0xec	-0.15863505
84	0xf9	-0.055522263
85	0x1e	0.23795256
86	0x12	0.14277154
87	0xfa	-0.047590513
88	0xe6	-0.20622556
89	0xf7	-0.07138577
90	0x14	0.15863505
91	0x03	0.023795256
92	0x24	0.28554308
93	0x23	0.27761132
94	0x04	0.03172701
95	0xeb	-0.16656679
96	0x0d	0.10311278
97	0x10	0.12690803
98	0x06	0.047590513
99	0x3c	0.47590512
100	0xed	-0.1507033
101	0x12	0.14277154
102	0xe5	-0.21415731
103	0x2c	0.3489971
104	0xec	-0.15863505
105	0x2b	0.34106535
106	0x0e	0.111044526
107	0xe6	-0.20622556
108	0xd7	-0.32520184
109	0x12	0.14277154
110	0x24	0.28554308
111	0x08	0.06345402
112	0x27	0.30933833
113	0xff	-0.007931752
114	0xe7	-0.1982938
115	0xea	-0.17449854
116	0x03	0.023795256
117	0x0e	0.111044526
118	0xeb	-0.16656679
119	0x48	0.57108617
120	0xea	-0.17449854
121	0x2a	0.33313358
122	0x01	0.007931752
123	0x34	0.41245112
124	0xf6	-0.079317525
125	0x08	0.06345402
126	0x08	0.06345402
127	0x05	0.039658763
128	0xf1	-0.11897628
129	0xfd	-0.023795256
130	0x49	0.5790179
131	0xfe	-0.015863504
132	0x22	0.26967958
133	0x0d	0.10311278
134	0xd8	-0.3172701
135	0xdb	-0.29347482
136	0x0f	0.11897628
137	0xfb	-0.039658763
138	0xf5	-0.08724927
139	0x2a	0.33313358
140	0xdd	-0.27761132
141	0xff	-0.007931752
142	0x26	0.3014066
143	0x1a	0.20622556
144	0xfc	-0.03172701
145	0xf6	-0.079317525
146	0x04	0.03172701
147	0x06	0.047590513
148	0x0d	0.10311278
149	0x07	0.055522263
150	0x66	0.8090387
151	0xfa	-0.047590513
152	0x0e	0.111044526
153	0x18	0.19036205
154	0xe1	-0.24588431
155	0xf7	-0.07138577
156	0xfc	-0.03172701
157	0xfb	-0.039658763
158	0x0a	0.079317525
159	0x29	0.32520184
160	0xec	-0.15863505
161	0xf7	-0.07138577
162	0x1a	0.20622556
163	0xf3	-0.10311278
164	0xf0	-0.12690803
165	0xf8	-0.06345402
166	0xf3	-0.10311278
167	0xf3	-0.10311278
168	0x0a	0.079317525
169	0xfb	-0.039658763
170	0x44	0.53935915
171	0xf8	-0.06345402
172	0x05	0.039658763
173	0x12	0.14277154
174	0xed	-0.1507033
175	0xf8	-0.06345402
176	0x08	0.06345402
177	0x16	0.17449854
178	0x12	0.14277154
179	0x17	0.1824303
180	0xf7	-0.07138577
181	0xe1	-0.24588431
182	0xfa	-0.047590513
183	0xe5	-0.21415731
184	0xde	-0.26967958
185	0x13	0.1507033
186	0xeb	-0.16656679
187	0xec	-0.15863505
188	0x2b	0.34106535
189	0xe7	-0.1982938
190	0x1c	0.22208905
191	0xf0	-0.12690803
192	0x02	0.015863504
193	0x0b	0.08724927
194	0x02	0.015863504
195	0xf1	-0.11897628
196	0x01	0.007931752
197	0x22	0.26967958
198	0x04	0.03172701
199	0x24	0.28554308
200	0x13	0.1507033
201	0xd7	-0.32520184
202	0xc6	-0.4600416
203	0xea	-0.17449854
204	0xcd	-0.40451935
205	0x0f	0.11897628
206	0x09	0.07138577
207	0x12	0.14277154
208	0x29	0.32520184
209	0xd9	-0.30933833
210	0x30	0.3807241
211	0x1e	0.23795256
212	0xf1	-0.11897628
213	0x06	0.047590513
214	0xfa	-0.047590513
215	0xf3	-0.10311278
216	0xfa	-0.047590513
217	0x08	0.06345402
218	0x0c	0.095181026
219	0x0c	0.095181026
220	0x11	0.13483979
221	0xd6	-0.33313358
222	0xc4	-0.47590512
223	0x16	0.17449854
224	0xc5	-0.46797338
225	0xef	-0.13483979
226	0x02	0.015863504
227	0x07	0.055522263
228	0x13	0.1507033
229	0xfd	-0.023795256
230	0x30	0.3807241
231	0x0a	0.079317525
232	0x45	0.5472909
233	0xd8	-0.3172701
234	0x09	0.07138577
235	0xf7	-0.07138577
236	0xf2	-0.111044526
237	0x0f	0.11897628
238	0xfe	-0.015863504
239	0x17	0.1824303
240	0x24	0.28554308
241	0xc6	-0.4600416
242	0xd1	-0.37279236
243	0x15	0.16656679
244	0xee	-0.14277154
245	0xe9	-0.1824303
246	0xf5	-0.08724927
247	0x04	0.03172701
248	0x0f	0.11897628
249	0x14	0.15863505
250	0x30	0.3807241
251	0xf8	-0.06345402
252	0x5f	0.75351644
253	0xe2	-0.23795256
254	0xf6	-0.079317525
255	0x05	0.039658763

tfl.pseudo_qconst6 i1 [20, 20] scale=0.014216715 zero_point=0
0	0x0a	0.14216715
1	0xe6	-0.36963457
2	0xf5	-0.15638386
3	0xe7	-0.35541788
4	0x05	0.071083575
5	0x06	0.08530029
6	0xf7	-0.12795043
7	0x01	0.014216715
8	0x14	0.2843343
9	0x2a	0.597102
10	0xce	-0.71083575
11	0xfd	-0.042650145
12	0x0f	0.21325071
13	0xe8	-0.34120116
14	0xcc	-0.73926914
15	0x0a	0.14216715
16	0x2b	0.6113187
17	0x21	0.4691516
18	0xd4	-0.6255354
19	0xe9	-0.32698444
20	0x24	0.5118017
21	0xfc	-0.05686686
22	0xed	-0.27011758
23	0xef	-0.24168415
24	0xc7	-0.81035274
25	0x14	0.2843343
26	0x02	0.02843343
27	0xf4	-0.17060058
28	0x05	0.071083575
29	0x25	0.52601844
30	0xf1	-0.21325071
31	0xd2	-0.6539689
32	0xcb	-0.75348586
33	0xe3	-0.41228473
34	0x0f	0.21325071
35	0x04	0.05686686
36	0xfa	-0.08530029
37	0xfc	-0.05686686
38	0x09	0.12795043
39	0xe0	-0.45493487
40	0xe8	-0.34120116
41	0xf8	-0.11373372
42	0x10	0.22746743
43	0xea	-0.3127677
44	0xf3	-0.18481728
45	0xfc	-0.05686686
46	0xf4	-0.17060058
47	0x0e	0.199034
48	0x17	0.32698444
49	0xe0	-0.45493487
50	0xeb	-0.298551
51	0xe8	-0.34120116
52	0xfe	-0.02843343
53	0x23	0.497585
54	0x00	0.0
55	0x16	0.3127677
56	0x04	0.05686686
57	0xfc	-0.05686686
58	0x15	0.298551
59	0xfc	-0.05686686
60	0x08	0.11373372
61	0xf7	-0.12795043
62	0xcb	-0.75348586
63	0x0a	0.14216715
64	0xe6	-0.36963457
65	0x0d	0.18481728
66	0xd8	-0.5686686
67	0x36	0.7677026
68	0x07	0.099517
69	0x10	0.22746743
70	0xc0	-0.90986973
71	0xf0	-0.22746743
72	0xfb	-0.071083575
73	0xb6	-1.0520369
74	0x07	0.099517
75	0x0d	0.18481728
76	0x08	0.11373372
77	0x57	1.2368542
78	0xe3	-0.41228473
79	0xf1	-0.21325071
80	0x3d	0.86721957
81	0x05	0.071083575
82	0x47	1.0093868
83	0x02	0.02843343
84	0x08	0.11373372
85	0xf3	-0.18481728
86	0xf7	-0.12795043
87	0x43	0.9525199
88	0x14	0.2843343
89	0xe8	-0.34120116
90	0x0b	0.15638386
91	0x00	0.0
92	0x21	0.4691516
93	0x1a	0.36963457
94	0x26	0.54023516
95	0x2e	0.6539689
96	0xdd	-0.497585
97	0x08	0.11373372
98	0xed	-0.27011758
99	0x3b	0.8387862
100	0xff	-0.014216715
101	0x06	0.08530029
102	0xe5	-0.3838513
103	0xcf	-0.69661903
104	0xdd	-0.497585
105	0x1d	0.41228473
106	0xdf	-0.4691516
107	0xd9	-0.5544519
108	0xe6	-0.36963457
109	0xf6	-0.14216715
110	0x0d	0.18481728
111	0xfb	-0.071083575
112	0x09	0.12795043
113	0x11	0.24168415
114	0xe7	-0.35541788
115	0x1a	0.36963457
116	0x13	0.27011758
117	0x11	0.24168415
118	0xcd	-0.7250524
119	0xd6	-0.597102
120	0x05	0.071083575
121	0xfa	-0.08530029
122	0xd4	-0.6255354
123	0xd5	-0.6113187
124	0xc8	-0.796136
125	0x0b	0.15638386
126	0xfa	-0.08530029
127	0xe4	-0.398068
128	0xff	-0.014216715
129	0xe6	-0.36963457
130	0xf8	-0.11373372
131	0xdf	-0.4691516
132	0x2a	0.597102
133	0x12	0.25590086
134	0xf7	-0.12795043
135	0x07	0.099517
136	0xfa	-0.08530029
137	0x12	0.25590086
138	0xf4	-0.17060058
139	0xde	-0.4833683
140	0x1a	0.36963457
141	0xe4	-0.398068
142	0x13	0.27011758
143	0xe2	-0.42650142
144	0xf1	-0.21325071
145	0x08	0.11373372
146	0xfc	-0.05686686
147	0xf8	-0.11373372
148	0xfe	-0.02843343
149	0xb9	-1.0093868
150	0xe3	-0.41228473
151	0xc2	-0.8814363
152	0xca	-0.7677026
153	0x1e	0.42650142
154	0x1e	0.42650142
155	0x0b	0.15638386
156	0xd9	-0.5544519
157	0x12	0.25590086
158	0x15	0.298551
159	0xfb	-0.071083575
160	0x1d	0.41228473
161	0xb8	-1.0236034
162	0xc1	-0.895653
163	0xe9	-0.32698444
164	0x16	0.3127677
165	0x25	0.52601844
166	0xee	-0.25590086
167	0x37	0.7819193
168	0x18	0.34120116
169	0x01	0.014216715
170	0xca	-0.7677026
171	0xfa	-0.08530029
172	0xcd	-0.7250524
173	0xde	-0.4833683
174	0x21	0.4691516
175	0x31	0.69661903
176	0x35	0.75348586
177	0x00	0.0
178	0xee	-0.25590086
179	0xc3	-0.86721957
180	0x29	0.5828853
181	0x05	0.071083575
182	0x16	0.3127677
183	0xda	-0.54023516
184	0x34	0.73926914
185	0xff	-0.014216715
186	0x01	0.014216715
187	0x34	0.73926914
188	0x0a	0.14216715
189	0xe9	-0.32698444
190	0xed	-0.27011758
191	0x0b	0.15638386
192	0x1b	0.3838513
193	0xe5	-0.3838513
194	0x2a	0.597102
195	0x4c	1.0804703
196	0xfd	-0.042650145
197	0xee	-0.25590086
198	0xda	-0.54023516
199	0xd3	-0.63975215
200	0xf1	-0.21325071
201	0xeb	-0.298551
202	0x07	0.099517
203	0xfc	-0.05686686
204	0xeb	-0.298551
205	0xf7	-0.12795043
206	0x0b	0.15638386
207	0xf0	-0.22746743
208	0xfb	-0.071083575
209	0xf7	-0.12795043
210	0xe3	-0.41228473
211	0xea	-0.3127677
212	0x02	0.02843343
213	0xf1	-0.21325071
214	0x1e	0.42650142
215	0x07	0.099517
216	0xee	-0.25590086
217	0xf8	-0.11373372
218	0x2c	0.6255354
219	0x02	0.02843343
220	0xf5	-0.15638386
221	0x00	0.0
222	0x06	0.08530029
223	0xc5	-0.8387862
224	0x11	0.24168415
225	0x03	0.042650145
226	0xf4	-0.17060058
227	0x55	1.2084208
228	0xe1	-0.44071814
229	0x2a	0.597102
230	0xde	-0.4833683
231	0x08	0.11373372
232	0x40	0.90986973
233	0xeb	-0.298551
234	0x1a	0.36963457
235	0x30	0.6824023
236	0x3a	0.82456946
237	0x30	0.6824023
238	0xb7	-1.0378202
239	0xed	-0.27011758
240	0x19	0.35541788
241	0xf0	-0.22746743
242	0x21	0.4691516
243	0xf9	-0.099517
244	0xde	-0.4833683
245	0xf0	-0.22746743
246	0xcb	-0.75348586
247	0x06	0.08530029
248	0x46	0.99517
249	0xc2	-0.8814363
250	0xd5	-0.6113187
251	0xdf	-0.4691516
252	0x0b	0.15638386
253	0xda	-0.54023516
254	0xb7	-1.0378202
255	0xe3	-0.41228473

tfl.pseudo_qconst7 i1 [20, 20] scale=0.006813586 zero_point=0
0	0x35	0.36112007
1	0xdd	-0.23847552
2	0xfb	-0.034067933
3	0x05	0.034067933
4	0x21	0.22484834
5	0x04	0.027254345
6	0x16	0.1498989
7	0x23	0.23847552
8	0xf9	-0.047695104
9	0x13	0.12945814
10	0x10	0.10901738
11	0xf8	-0.05450869
12	0xca	-0.36793366
13	0xfe	-0.013627172
14	0x38	0.38156083
15	0x06	0.04088152
16	0x16	0.1498989
17	0x27	0.26572987
18	0x04	0.027254345
19	0x07	0.047695104
20	0x22	0.23166193
21	0xf6	-0.068135865
22	0x0e	0.09539021
23	0x0c	0.08176304
24	0x09	0.061322276
25	0xfa	-0.04088152
26	0xf7	-0.061322276
27	0x02	0.013627172
28	0x10	0.10901738
29	0x20	0.21803476
30	0xe7	-0.17033966
31	0x2d	0.3066114
32	0x26	0.2589163
33	0xbf	-0.4428831
34	0x43	0.45651028
35	0x27	0.26572987
36	0xd6	-0.28617063
37	0x05	0.034067933
38	0xd3	-0.3066114
39	0xd3	-0.3066114
40	0x37	0.37474725
41	0xdd	-0.23847552
42	0x13	0.12945814
43	0x32	0.34067932
44	0x2f	0.32023856
45	0xf3	-0.08857662
46	0x07	0.047695104
47	0x05	0.034067933
48	0xf5	-0.07494945
49	0xea	-0.1498989
50	0xef	-0.115830965
51	0xf9	-0.047695104
52	0x01	0.006813586
53	0x00	0.0
54	0x0b	0.07494945
55	0xe7	-0.17033966
56	0x1a	0.17715324
57	0x29	0.27935705
58	0xbd	-0.45651028
59	0xf8	-0.05450869
60	0xfd	-0.02044076
61	0x0c	0.08176304
62	0xd4	-0.2997978
63	0xf7	-0.061322276
64	0xd2	-0.31342497
65	0xfd	-0.02044076
66	0x07	0.047695104
67	0xef	-0.115830965
68	0x34	0.3543065
69	0xf0	-0.10901738
70	0xe7	-0.17033966
71	0x16	0.1498989
72	0xce	-0.34067932
73	0xfe	-0.013627172
74	0xf6	-0.068135865
75	0xe4	-0.19078042
76	0xf7	-0.061322276
77	0x11	0.115830965
78	0x07	0.047695104
79	0xf1	-0.102203794
80	0xea	-0.1498989
81	0xec	-0.13627173
82	0xed	-0.12945814
83	0x1f	0.21122117
84	0xf3	-0.08857662
85	0xe2	-0.20440759
86	0xfa	-0.04088152
87	0x0b	0.07494945
88	0xf5	-0.07494945
89	0x12	0.12264455
90	0x1e	0.20440759
91	0x07	0.047695104
92	0xc0	-0.43606952
93	0xdd	-0.23847552
94	0x08	0.05450869
95	0x16	0.1498989
96	0x23	0.23847552
97	0xe2	-0.20440759
98	0xf7	-0.061322276
99	0x13	0.12945814
100	0xd7	-0.27935705
101	0xec	-0.13627173
102	0x2f	0.32023856
103	0x1c	0.19078042
104	0x4e	0.53145975
105	0x21	0.22484834
106	0x16	0.1498989
107	0xdb	-0.2521027
108	0x17	0.15671249
109	0xe4	-0.19078042
110	0xf3	-0.08857662
111	0x0a	0.068135865
112	0x3a	0.395188
113	0x22	0.23166193
114	0x36	0.36793366
115	0x5d	0.63366354
116	0xe2	-0.20440759
117	0xfa	-0.04088152
118	0x17	0.15671249
119	0xf3	-0.08857662
120	0x03	0.02044076
121	0x18	0.16352607
122	0xff	-0.006813586
123	0xf5	-0.07494945
124	0x47	0.48376462
125	0x1d	0.197594
126	0x0b	0.07494945
127	0x01	0.006813586
128	0xd2	-0.31342497
129	0x01	0.006813586
130	0xf6	-0.068135865
131	0xea	-0.1498989
132	0x42	0.4496967
133	0x0c	0.08176304
134	0x1b	0.18396683
135	0x27	0.26572987
136	0xe7	-0.17033966
137	0xfa	-0.04088152
138	0x09	0.061322276
139	0xd2	-0.31342497
140	0x01	0.006813586
141	0xd6	-0.28617063
142	0xec	-0.13627173
143	0x05	0.034067933
144	0x16	0.1498989
145	0x0d	0.08857662
146	0x1c	0.19078042
147	0x2d	0.3066114
148	0xeb	-0.14308532
149	0x7f	0.86532545
150	0x06	0.04088152
151	0xd8	-0.27254346
152	0x8d	-0.7835624
153	0xde	-0.23166193
154	0x1e	0.20440759
155	0x0f	0.102203794
156	0x2a	0.28617063
157	0xdb	-0.2521027
158	0xb3	-0.52464616
159	0x0a	0.068135865
160	0x11	0.115830965
161	0x15	0.14308532
162	0x25	0.2521027
163	0x16	0.1498989
164	0x15	0.14308532
165	0x30	0.32705215
166	0x4f	0.53827333
167	0x16	0.1498989
168	0xee	-0.12264455
169	0x22	0.23166193
170	0x04	0.027254345
171	0x4a	0.5042054
172	0x1b	0.18396683
173	0x0a	0.068135865
174	0x18	0.16352607
175	0x2f	0.32023856
176	0x0d	0.08857662
177	0xdc	-0.2452891
178	0x01	0.006813586
179	0xd3	-0.3066114
180	0x3a	0.395188
181	0xd9	-0.26572987
182	0x11	0.115830965
183	0xeb	-0.14308532
184	0xf0	-0.10901738
185	0x18	0.16352607
186	0x08	0.05450869
187	0x15	0.14308532
188	0xea	-0.1498989
189	0xe1	-0.21122117
190	0x00	0.0
191	0xcf	-0.33386573
192	0x0d	0.08857662
193	0xea	-0.1498989
194	0xff	-0.006813586
195	0x35	0.36112007
196	0x04	0.027254345
197	0xdb	-0.2521027
198	0xef	-0.115830965
199	0x07	0.047695104
200	0xd5	-0.29298422
201	0x17	0.15671249
202	0x40	0.43606952
203	0x2d	0.3066114
204	0x3c	0.40881518
205	0xe5	-0.18396683
206	0x22	0.23166193
207	0x2a	0.28617063
208	0xcf	-0.33386573
209	0xde	-0.23166193
210	0x2b	0.29298422
211	0x42	0.4496967
212	0x35	0.36112007
213	0x40	0.43606952
214	0xd4	-0.2997978
215	0xbc	-0.46332386
216	0x17	0.15671249
217	0xf9	-0.047695104
218	0xdf	-0.22484834
219	0x34	0.3543065
220	0x02	0.013627172
221	0x21	0.22484834
222	0x15	0.14308532
223	0x1c	0.19078042
224	0x09	0.061322276
225	0xe8	-0.16352607
226	0x21	0.22484834
227	0xeb	-0.14308532
228	0xd4	-0.2997978
229	0x42	0.4496967
230	0x0e	0.09539021
231	0x07	0.047695104
232	0xcd	-0.3474929
233	0x22	0.23166193
234	0xdd	-0.23847552
235	0xc2	-0.42244235
236	0x20	0.21803476
237	0xe1	-0.21122117
238	0x0d	0.08857662
239	0xf4	-0.08176304
240	0xfb	-0.034067933
241	0xe2	-0.20440759
242	0x08	0.05450869
243	0xe2	-0.20440759
244	0x13	0.12945814
245	0x03	0.02044076
246	0xe0	-0.21803476
247	0x5a	0.6132228
248	0x08	0.05450869
249	0xfc	-0.027254345
250	0xdc	-0.2452891
251	0x48	0.4905782
252	0xda	-0.2589163
253	0xd1	-0.32023856
254	0xfa	-0.04088152
255	0x2e	0.31342497

tfl.pseudo_qconst8 i1 [20, 20] scale=0.008288738 zero_point=0
0	0x11	0.14090855
1	0x0d	0.1077536
2	0x02	0.016577477
3	0xf0	-0.13261981
4	0xfd	-0.024866216
5	0x13	0.15748602
6	0x08	0.06630991
7	0xef	-0.14090855
8	0xed	-0.15748602
9	0x47	0.58850044
10	0x03	0.024866216
11	0xc5	-0.48903555
12	0xca	-0.44759187
13	0xd3	-0.37299323
14	0xdd	-0.29010585
15	0xf5	-0.09117612
16	0x0f	0.12433107
17	0xf5	-0.09117612
18	0xf2	-0.11604234
19	0xe4	-0.23208468
20	0xba	-0.5802117
21	0x10	0.13261981
22	0x19	0.20721845
23	0xfe	-0.016577477
24	0xfa	-0.04973243
25	0x0f	0.12433107
26	0x14	0.16577476
27	0x10	0.13261981
28	0x44	0.5636342
29	0x06	0.04973243
30	0x10	0.13261981
31	0xf8	-0.06630991
32	0x05	0.04144369
33	0xf5	-0.09117612
34	0x0b	0.09117612
35	0xd2	-0.38128197
36	0x07	0.05802117
37	0x13	0.15748602
38	0x37	0.4558806
39	0x0c	0.09946486
40	0xe8	-0.19892973
41	0x1c	0.23208468
42	0x19	0.20721845
43	0xeb	-0.1740635
44	0xfd	-0.024866216
45	0x00	0.0
46	0x0a	0.08288738
47	0x0e	0.11604234
48	0x0d	0.1077536
49	0xe5	-0.22379594
50	0x0f	0.12433107
51	0x0c	0.09946486
52	0x13	0.15748602
53	0x19	0.20721845
54	0x19	0.20721845
55	0x25	0.30668333
56	0xc2	-0.51390177
57	0xe2	-0.24866214
58	0x46	0.5802117
59	0x19	0.20721845
60	0x02	0.016577477
61	0x10	0.13261981
62	0xf3	-0.1077536
63	0x00	0.0
64	0xc5	-0.48903555
65	0x1a	0.2155072
66	0xdf	-0.27352837
67	0x14	0.16577476
68	0x00	0.0
69	0xf1	-0.12433107
70	0xec	-0.16577476
71	0xef	-0.14090855
72	0xd3	-0.37299323
73	0xcf	-0.40614817
74	0x23	0.29010585
75	0x0c	0.09946486
76	0x04	0.033154953
77	0x18	0.19892973
78	0x1b	0.22379594
79	0xf4	-0.09946486
80	0xb1	-0.6548103
81	0x0d	0.1077536
82	0xf0	-0.13261981
83	0x17	0.19064099
84	0x02	0.016577477
85	0x04	0.033154953
86	0x27	0.32326078
87	0x11	0.14090855
88	0x28	0.33154953
89	0xd4	-0.3647045
90	0x07	0.05802117
91	0x04	0.033154953
92	0x46	0.5802117
93	0x1f	0.25695089
94	0xe8	-0.19892973
95	0x1e	0.24866214
96	0x01	0.008288738
97	0x1b	0.22379594
98	0x20	0.26523963
99	0x37	0.4558806
100	0xf7	-0.07459865
101	0x39	0.4724581
102	0x01	0.008288738
103	0xe6	-0.2155072
104	0x06	0.04973243
105	0xf5	-0.09117612
106	0xfb	-0.04144369
107	0xcb	-0.43930313
108	0xbd	-0.5553455
109	0xf0	-0.13261981
110	0xf5	-0.09117612
111	0xe1	-0.25695089
112	0x51	0.6713878
113	0x06	0.04973243
114	0xf9	-0.05802117
115	0x1a	0.2155072
116	0x0c	0.09946486
117	0x1a	0.2155072
118	0xee	-0.1491973
119	0xca	-0.44759187
120	0xd1	-0.3895707
121	0xd7	-0.33983827
122	0xe7	-0.20721845
123	0x0e	0.11604234
124	0xbc	-0.5636342
125	0xdf	-0.27352837
126	0x26	0.31497204
127	0xc0	-0.53047925
128	0xe8	-0.19892973
129	0x18	0.19892973
130	0xe5	-0.22379594
131	0x12	0.1491973
132	0xbc	-0.5636342
133	0x34	0.4310144
134	0x19	0.20721845
135	0xff	-0.008288738
136	0xe5	-0.22379594
137	0x2b	0.35641575
138	0xf8	-0.06630991
139	0x44	0.5636342
140	0x10	0.13261981
141	0x03	0.024866216
142	0x30	0.39785945
143	0x18	0.19892973
144	0xfc	-0.033154953
145	0xf7	-0.07459865
146	0xf5	-0.09117612
147	0x0a	0.08288738
148	0xf2	-0.11604234
149	0x0b	0.09117612
150	0xfe	-0.016577477
151	0x06	0.04973243
152	0xf4	-0.09946486
153	0x1f	0.25695089
154	0xff	-0.008288738
155	0x0b	0.09117612
156	0xf7	-0.07459865
157	0x10	0.13261981
158	0x26	0.31497204
159	0x23	0.29010585
160	0xc2	-0.51390177
161	0xf2	-0.11604234
162	0x4c	0.6299441
163	0x18	0.19892973
164	0x3a	0.48074684
165	0xed	-0.15748602
166	0x1e	0.24866214
167	0x2b	0.35641575
168	0xe9	-0.19064099
169	0x43	0.5553455
170	0x13	0.15748602
171	0x03	0.024866216
172	0xef	-0.14090855
173	0x2a	0.348127
174	0xbd	-0.5553455
175	0xdc	-0.2983946
176	0x1c	0.23208468
177	0x0f	0.12433107
178	0xe1	-0.25695089
179	0x39	0.4724581
180	0xb8	-0.5967892
181	0xf4	-0.09946486
182	0x17	0.19064099
183	0x1b	0.22379594
184	0x15	0.1740635
185	0xd3	-0.37299323
186	0xe4	-0.23208468
187	0x1b	0.22379594
188	0xe7	-0.20721845
189	0xee	-0.1491973
190	0x0d	0.1077536
191	0x37	0.4558806
192	0x10	0.13261981
193	0x10	0.13261981
194	0x28	0.33154953
195	0xd3	-0.37299323
196	0x39	0.4724581
197	0xf3	-0.1077536
198	0xb5	-0.62165534
199	0x14	0.16577476
200	0x23	0.29010585
201	0xfc	-0.033154953
202	0xf1	-0.12433107
203	0xda	-0.31497204
204	0xfc	-0.033154953
205	0xf7	-0.07459865
206	0xeb	-0.1740635
207	0xda	-0.31497204
208	0xbc	-0.5636342
209	0x13	0.15748602
210	0xd5	-0.35641575
211	0xcd	-0.42272565
212	0x02	0.016577477
213	0x90	-0.9283387
214	0x28	0.33154953
215	0x13	0.15748602
216	0xe7	-0.20721845
217	0x06	0.04973243
218	0x14	0.16577476
219	0xee	-0.1491973
220	0x17	0.19064099
221	0x1c	0.23208468
222	0xe9	-0.19064099
223	0xf1	-0.12433107
224	0xd5	-0.35641575
225	0x0c	0.09946486
226	0x1c	0.23208468
227	0x23	0.29010585
228	0x19	0.20721845
229	0x21	0.27352837
230	0xec	-0.16577476
231	0xf6	-0.08288738
232	0x13	0.15748602
233	0xf9	-0.05802117
234	0xe8	-0.19892973
235	0x03	0.024866216
236	0xc5	-0.48903555
237	0x33	0.42272565
238	0xfa	-0.04973243
239	0x39	0.4724581
240	0xf7	-0.07459865
241	0x44	0.5636342
242	0x04	0.033154953
243	0x1f	0.25695089
244	0xdb	-0.30668333
245	0x2b	0.35641575
246	0xf0	-0.13261981
247	0xfa	-0.04973243
248	0xfa	-0.04973243
249	0x02	0.016577477
250	0x1a	0.2155072
251	0xef	-0.14090855
252	0x7f	1.0526698
253	0xf7	-0.07459865
254	0xcb	-0.43930313
255	0xab	-0.70454276

tfl.pseudo_qconst9 i1 [20, 20] scale=0.01638897 zero_point=0
0	0xe5	-0.44250217
1	0x1f	0.5080581
2	0x07	0.11472279
3	0x16	0.36055732
4	0xe7	-0.40972424
5	0x1f	0.5080581
6	0x04	0.06555588
7	0x07	0.11472279
8	0x2b	0.7047257
9	0x23	0.57361394
10	0x1a	0.42611322
11	0x0a	0.16388969
12	0x14	0.32777938
13	0x07	0.11472279
14	0x03	0.04916691
15	0xf9	-0.11472279
16	0x0a	0.16388969
17	0x04	0.06555588
18	0x0d	0.21305661
19	0xf6	-0.16388969
20	0x4b	1.2291727
21	0x0e	0.22944558
22	0x1f	0.5080581
23	0x01	0.01638897
24	0x19	0.40972424
25	0xfa	-0.09833382
26	0x06	0.09833382
27	0x24	0.5900029
28	0x26	0.62278086
29	0x16	0.36055732
30	0x04	0.06555588
31	0xdd	-0.57361394
32	0xed	-0.31139043
33	0xf0	-0.2622235
34	0x01	0.01638897
35	0x12	0.29500145
36	0x07	0.11472279
37	0x12	0.29500145
38	0xf5	-0.18027866
39	0xf8	-0.13111176
40	0xe4	-0.45889115
41	0x1d	0.4752801
42	0x22	0.557225
43	0xf6	-0.16388969
44	0x05	0.081944846
45	0x10	0.2622235
46	0xfd	-0.04916691
47	0x1d	0.4752801
48	0x0e	0.22944558
49	0xff	-0.01638897
50	0x23	0.57361394
51	0x10	0.2622235
52	0x0d	0.21305661
53	0x0e	0.22944558
54	0x05	0.081944846
55	0xed	-0.31139043
56	0x06	0.09833382
57	0xf9	-0.11472279
58	0xf2	-0.22944558
59	0xd9	-0.6391698
60	0xfa	-0.09833382
61	0x15	0.34416837
62	0xfc	-0.06555588
63	0x36	0.88500434
64	0xee	-0.29500145
65	0xf2	-0.22944558
66	0x12	0.29500145
67	0x0d	0.21305661
68	0xcf	-0.8030595
69	0x1f	0.5080581
70	0x14	0.32777938
71	0x0f	0.24583454
72	0xf8	-0.13111176
73	0x0d	0.21305661
74	0xfe	-0.03277794
75	0xf7	-0.14750072
76	0xf6	-0.16388969
77	0xe6	-0.42611322
78	0xf4	-0.19666764
79	0xeb	-0.34416837
80	0xee	-0.29500145
81	0xfd	-0.04916691
82	0x40	1.048894
83	0x17	0.3769463
84	0x05	0.081944846
85	0xda	-0.62278086
86	0xf4	-0.19666764
87	0x14	0.32777938
88	0x14	0.32777938
89	0xfc	-0.06555588
90	0x09	0.14750072
91	0xfa	-0.09833382
92	0x0d	0.21305661
93	0x0c	0.19666764
94	0x06	0.09833382
95	0xe9	-0.3769463
96	0x00	0.0
97	0x26	0.62278086
98	0x02	0.03277794
99	0x52	1.3438956
100	0x06	0.09833382
101	0x0a	0.16388969
102	0xed	-0.31139043
103	0x17	0.3769463
104	0x1b	0.44250217
105	0x0a	0.16388969
106	0xf2	-0.22944558
107	0xff	-0.01638897
108	0xdf	-0.540836
109	0xfb	-0.081944846
110	0x18	0.39333528
111	0x01	0.01638897
112	0xf3	-0.21305661
113	0xd5	-0.7047257
114	0xcc	-0.85222644
115	0xdd	-0.57361394
116	0x16	0.36055732
117	0xe1	-0.5080581
118	0xf0	-0.2622235
119	0xe6	-0.42611322
120	0x1a	0.42611322
121	0xec	-0.32777938
122	0xd6	-0.68833673
123	0xe1	-0.5080581
124	0xe2	-0.4916691
125	0x09	0.14750072
126	0x09	0.14750072
127	0xe4	-0.45889115
128	0x07	0.11472279
129	0xe1	-0.5080581
130	0x06	0.09833382
131	0xfa	-0.09833382
132	0x10	0.2622235
133	0x37	0.9013933
134	0xd6	-0.68833673
135	0xee	-0.29500145
136	0xf5	-0.18027866
137	0x1d	0.4752801
138	0xf4	-0.19666764
139	0x10	0.2622235
140	0xdc	-0.5900029
141	0x17	0.3769463
142	0x0b	0.18027866
143	0x15	0.34416837
144	0xd5	-0.7047257
145	0x13	0.31139043
146	0xe6	-0.42611322
147	0xe4	-0.45889115
148	0xe6	-0.42611322
149	0x00	0.0
150	0xf6	-0.16388969
151	0x19	0.40972424
152	0xd7	-0.6719478
153	0x0f	0.24583454
154	0x2a	0.68833673
155	0xc9	-0.9013933
156	0xfc	-0.06555588
157	0x01	0.01638897
158	0xfa	-0.09833382
159	0x2e	0.7538926
160	0x1f	0.5080581
161	0xcc	-0.85222644
162	0x01	0.01638897
163	0xd3	-0.73750365
164	0x09	0.14750072
165	0xfb	-0.081944846
166	0xf2	-0.22944558
167	0x05	0.081944846
168	0x1e	0.4916691
169	0xed	-0.31139043
170	0xd5	-0.7047257
171	0xe9	-0.3769463
172	0xf5	-0.18027866
173	0xfa	-0.09833382
174	0xf6	-0.16388969
175	0x02	0.03277794
176	0x20	0.524447
177	0x22	0.557225
178	0x0e	0.22944558
179	0x13	0.31139043
180	0xfa	-0.09833382
181	0x0b	0.18027866
182	0x10	0.2622235
183	0xe1	-0.5080581
184	0x10	0.2622235
185	0x09	0.14750072
186	0x06	0.09833382
187	0x21	0.540836
188	0x14	0.32777938
189	0xe6	-0.42611322
190	0xe1	-0.5080581
191	0xf9	-0.11472279
192	0x13	0.31139043
193	0x01	0.01638897
194	0x09	0.14750072
195	0x07	0.11472279
196	0xe7	-0.40972424
197	0x21	0.540836
198	0xf3	-0.21305661
199	0x02	0.03277794
200	0xe5	-0.44250217
201	0x0e	0.22944558
202	0xf7	-0.14750072
203	0x11	0.2786125
204	0xf8	-0.13111176
205	0x02	0.03277794
206	0x04	0.06555588
207	0x0c	0.19666764
208	0x07	0.11472279
209	0x0d	0.21305661
210	0xff	-0.01638897
211	0x1a	0.42611322
212	0xbe	-1.081672
213	0xc4	-0.9833382
214	0x1d	0.4752801
215	0xfe	-0.03277794
216	0xe8	-0.39333528
217	0xf4	-0.19666764
218	0x14	0.32777938
219	0xcb	-0.8686154
220	0x1e	0.4916691
221	0xf4	-0.19666764
222	0xf4	-0.19666764
223	0xd9	-0.6391698
224	0x09	0.14750072
225	0x18	0.39333528
226	0x13	0.31139043
227	0x22	0.557225
228	0xfb	-0.081944846
229	0x1a	0.42611322
230	0xdd	-0.57361394
231	0x18	0.39333528
232	0x0e	0.22944558
233	0xff	-0.01638897
234	0x3a	0.9505602
235	0x12	0.29500145
236	0x05	0.081944846
237	0x2d	0.73750365
238	0xee	-0.29500145
239	0x00	0.0
240	0x0d	0.21305661
241	0xe6	-0.42611322
242	0xff	-0.01638897
243	0x13	0.31139043
244	0x02	0.03277794
245	0xfb	-0.081944846
246	0xfc	-0.06555588
247	0xf8	-0.13111176
248	0x2f	0.77028155
249	0xde	-0.557225
250	0xf8	-0.13111176
251	0x01	0.01638897
252	0xe6	-0.42611322
253	0xff	-0.01638897
254	0xf7	-0.14750072
255	0xf2	-0.22944558

tfl.pseudo_qconst10 i1 [20, 28] scale=0.011716032 zero_point=0
0	0xfe	-0.023432065
1	0x00	0.0
2	0x43	0.78497416
3	0x20	0.37491304
4	0x1c	0.3280489
5	0x24	0.42177716
6	0x12	0.21088858
7	0x19	0.2929008
8	0x0e	0.16402446
9	0x16	0.25775272
10	0x2c	0.51550543
11	0x23	0.41006112
12	0x12	0.21088858
13	0x17	0.26946875
14	0x25	0.4334932
15	0xf6	-0.11716032
16	0xb4	-0.89041847
17	0xb8	-0.8435543
18	0xcc	-0.6092337
19	0xca	-0.63266575
20	0x03	0.0351481
21	0x1e	0.35148096
22	0x3a	0.6795299
23	0x52	0.96071464
24	0x65	1.1833193
25	0x5a	1.0544429
26	0x05	0.05858016
27	0x37	0.64438176
28	0xfc	-0.04686413
29	0x0c	0.1405924
30	0xf2	-0.16402446
31	0xed	-0.22260462
32	0x05	0.05858016
33	0x09	0.10544429
34	0x07	0.08201223
35	0xf4	-0.1405924
36	0x21	0.38662907
37	0x2a	0.49207336
38	0x11	0.19917256
39	0x3c	0.7029619
40	0x3f	0.73811007
41	0x2f	0.5506535
42	0xee	-0.21088858
43	0xd1	-0.5506535
44	0xee	-0.21088858
45	0xe3	-0.33976495
46	0x1a	0.30461684
47	0x21	0.38662907
48	0x37	0.64438176
49	0x38	0.6560978
50	0x42	0.77325815
51	0x40	0.7498261
52	0x06	0.0702962
53	0xc3	-0.714678
54	0x0e	0.16402446
55	0xea	-0.25775272
56	0xfc	-0.04686413
57	0x0c	0.1405924
58	0xfa	-0.0702962
59	0x04	0.04686413
60	0x26	0.44520923
61	0x28	0.46864128
62	0x1a	0.30461684
63	0x05	0.05858016
64	0x01	0.011716032
65	0xc5	-0.6912459
66	0xd6	-0.49207336
67	0x1c	0.3280489
68	0x33	0.59751767
69	0x1e	0.35148096
70	0x36	0.63266575
71	0x14	0.23432064
72	0x20	0.37491304
73	0x10	0.18745652
74	0x3c	0.7029619
75	0x26	0.44520923
76	0xce	-0.5858016
77	0xfa	-0.0702962
78	0xea	-0.25775272
79	0x10	0.18745652
80	0x1f	0.363197
81	0x49	0.8552704
82	0x14	0.23432064
83	0x18	0.2811848
84	0x03	0.0351481
85	0xeb	-0.24603668
86	0xd9	-0.45692527
87	0xd1	-0.5506535
88	0x15	0.24603668
89	0x2c	0.51550543
90	0x51	0.94899863
91	0x56	1.0075787
92	0x08	0.09372826
93	0x00	0.0
94	0xdf	-0.38662907
95	0x0c	0.1405924
96	0x1e	0.35148096
97	0x4c	0.89041847
98	0x48	0.8435543
99	0x06	0.0702962
100	0x11	0.19917256
101	0xf4	-0.1405924
102	0x16	0.25775272
103	0x15	0.24603668
104	0xf5	-0.12887636
105	0x13	0.22260462
106	0x29	0.48035732
107	0x18	0.2811848
108	0xd9	-0.45692527
109	0xdf	-0.38662907
110	0x0e	0.16402446
111	0xfd	-0.0351481
112	0x0c	0.1405924
113	0x1a	0.30461684
114	0x1c	0.3280489
115	0xde	-0.3983451
116	0xdc	-0.42177716
117	0xda	-0.44520923
118	0xd5	-0.50378937
119	0xe0	-0.37491304
120	0x16	0.25775272
121	0x48	0.8435543
122	0x57	1.0192949
123	0x54	0.9841467
124	0x3d	0.714678
125	0x33	0.59751767
126	0x19	0.2929008
127	0x13	0.22260462
128	0x04	0.04686413
129	0xee	-0.21088858
130	0xde	-0.3983451
131	0xe3	-0.33976495
132	0x22	0.3983451
133	0xfc	-0.04686413
134	0x0d	0.15230842
135	0x12	0.21088858
136	0xfa	-0.0702962
137	0xf8	-0.09372826
138	0xbb	-0.80840623
139	0xc5	-0.6912459
140	0xf5	-0.12887636
141	0x16	0.25775272
142	0x22	0.3983451
143	0x3b	0.6912459
144	0x4c	0.89041847
145	0x2c	0.51550543
146	0x27	0.45692527
147	0x21	0.38662907
148	0x01	0.011716032
149	0xf9	-0.08201223
150	0x0d	0.15230842
151	0x20	0.37491304
152	0x46	0.82012224
153	0x50	0.93728256
154	0x0e	0.16402446
155	0xd9	-0.45692527
156	0xf5	-0.12887636
157	0x09	0.10544429
158	0x01	0.011716032
159	0x27	0.45692527
160	0x0e	0.16402446
161	0x02	0.023432065
162	0x08	0.09372826
163	0x14	0.23432064
164	0xff	-0.011716032
165	0xde	-0.3983451
166	0x0b	0.12887636
167	0x41	0.7615421
168	0x11	0.19917256
169	0xf6	-0.11716032
170	0x0d	0.15230842
171	0x3c	0.7029619
172	0x1b	0.31633288
173	0x1d	0.33976495
174	0xdc	-0.42177716
175	0x0d	0.15230842
176	0x1c	0.3280489
177	0x24	0.42177716
178	0x2f	0.5506535
179	0x2b	0.50378937
180	0x09	0.10544429
181	0xff	-0.011716032
182	0xe0	-0.37491304
183	0xf5	-0.12887636
184	0x03	0.0351481
185	0x12	0.21088858
186	0x01	0.011716032
187	0x0f	0.17574048
188	0x15	0.24603668
189	0x1c	0.3280489
190	0x1c	0.3280489
191	0x2d	0.52722144
192	0x04	0.04686413
193	0xeb	-0.24603668
194	0x21	0.38662907
195	0x1c	0.3280489
196	0x20	0.37491304
197	0x0b	0.12887636
198	0x0e	0.16402446
199	0xfb	-0.05858016
200	0x03	0.0351481
201	0xe4	-0.3280489
202	0xf7	-0.10544429
203	0xec	-0.23432064
204	0xee	-0.21088858
205	0xfc	-0.04686413
206	0x07	0.08201223
207	0xfa	-0.0702962
208	0xec	-0.23432064
209	0xf1	-0.17574048
210	0xfc	-0.04686413
211	0x14	0.23432064
212	0x54	0.9841467
213	0x70	1.3121957
214	0x2b	0.50378937
215	0x10	0.18745652
216	0xc7	-0.66781384
217	0xd7	-0.48035732
218	0xca	-0.63266575
219	0xbb	-0.80840623
220	0x94	-1.2653315
221	0xaf	-0.94899863
222	0x93	-1.2770475
223	0xc0	-0.7498261
224	0xea	-0.25775272
225	0xdc	-0.42177716
226	0xce	-0.5858016
227	0x04	0.04686413
228	0x3b	0.6912459
229	0x2c	0.51550543
230	0x3e	0.726394
231	0x68	1.2184674
232	0x6e	1.2887635
233	0x54	0.9841467
234	0x31	0.5740856
235	0x28	0.46864128
236	0x1d	0.33976495
237	0x4a	0.8669864
238	0x24	0.42177716
239	0x0e	0.16402446
240	0xf5	-0.12887636
241	0xfc	-0.04686413
242	0x0b	0.12887636
243	0x0d	0.15230842
244	0x22	0.3983451
245	0x26	0.44520923
246	0x1a	0.30461684
247	0x0f	0.17574048
248	0xd1	-0.5506535
249	0xd8	-0.46864128
250	0xc6	-0.6795299
251	0xfc	-0.04686413
252	0xfd	-0.0351481
253	0x03	0.0351481
254	0xca	-0.63266575
255	0xe7	-0.2929008

tfl.pseudo_qconst11 i1 [20, 28] scale=0.01161547 zero_point=0
0	0xe4	-0.32523316
1	0xea	-0.25554034
2	0x00	0.0
3	0x06	0.06969282
4	0xe9	-0.26715583
5	0xff	-0.01161547
6	0xef	-0.19746299
7	0x0d	0.15100111
8	0x09	0.10453923
9	0xff	-0.01161547
10	0x06	0.06969282
11	0xeb	-0.24392487
12	0xe9	-0.26715583
13	0xf4	-0.13938564
14	0xe3	-0.33684862
15	0xf3	-0.15100111
16	0xfd	-0.03484641
17	0x1a	0.30200222
18	0x22	0.39492598
19	0x46	0.81308293
20	0x38	0.6504663
21	0x1a	0.30200222
22	0x28	0.4646188
23	0x32	0.5807735
24	0x06	0.06969282
25	0xfb	-0.05807735
26	0x0c	0.13938564
27	0xe3	-0.33684862
28	0xec	-0.2323094
29	0xe6	-0.30200222
30	0x0c	0.13938564
31	0xfb	-0.05807735
32	0x0a	0.1161547
33	0x09	0.10453923
34	0x03	0.03484641
35	0x12	0.20907846
36	0x02	0.02323094
37	0xf3	-0.15100111
38	0xe5	-0.3136177
39	0xe2	-0.3484641
40	0xe4	-0.32523316
41	0x09	0.10453923
42	0xfe	-0.02323094
43	0xd7	-0.47623426
44	0xc4	-0.6969282
45	0xe8	-0.27877128
46	0x00	0.0
47	0x06	0.06969282
48	0x17	0.26715583
49	0xfa	-0.06969282
50	0x0a	0.1161547
51	0xfb	-0.05807735
52	0xf2	-0.16261658
53	0x00	0.0
54	0xec	-0.2323094
55	0x1a	0.30200222
56	0xf8	-0.09292376
57	0xfb	-0.05807735
58	0x27	0.45300335
59	0x27	0.45300335
60	0x01	0.01161547
61	0x17	0.26715583
62	0x01	0.01161547
63	0xe0	-0.37169504
64	0xc7	-0.6620818
65	0xeb	-0.24392487
66	0xf1	-0.17423205
67	0x0e	0.16261658
68	0x21	0.3833105
69	0xfa	-0.06969282
70	0xdd	-0.40654147
71	0xdd	-0.40654147
72	0xee	-0.20907846
73	0x0d	0.15100111
74	0x0f	0.17423205
75	0x11	0.19746299
76	0xf8	-0.09292376
77	0xfc	-0.04646188
78	0x09	0.10453923
79	0x09	0.10453923
80	0x3f	0.7317746
81	0x2a	0.48784974
82	0xf5	-0.12777017
83	0xea	-0.25554034
84	0xf8	-0.09292376
85	0xca	-0.6272354
86	0xfa	-0.06969282
87	0xda	-0.44138786
88	0xfc	-0.04646188
89	0xfb	-0.05807735
90	0xea	-0.25554034
91	0x0b	0.12777017
92	0xea	-0.25554034
93	0xf8	-0.09292376
94	0xc7	-0.6620818
95	0xf5	-0.12777017
96	0xf7	-0.10453923
97	0x0e	0.16261658
98	0x09	0.10453923
99	0xf3	-0.15100111
100	0xdf	-0.3833105
101	0xd1	-0.5459271
102	0xe4	-0.32523316
103	0xf9	-0.08130829
104	0x05	0.05807735
105	0xff	-0.01161547
106	0x0c	0.13938564
107	0x02	0.02323094
108	0x1a	0.30200222
109	0xfa	-0.06969282
110	0xdf	-0.3833105
111	0xe5	-0.3136177
112	0xe1	-0.3600796
113	0xd4	-0.5110807
114	0xd8	-0.4646188
115	0xb5	-0.87116027
116	0xb3	-0.8943912
117	0xdc	-0.41815692
118	0x9c	-1.161547
119	0xb6	-0.85954475
120	0xd4	-0.5110807
121	0x06	0.06969282
122	0x16	0.25554034
123	0x2d	0.52269614
124	0x1c	0.32523316
125	0xf8	-0.09292376
126	0xdf	-0.3833105
127	0xdf	-0.3833105
128	0xf2	-0.16261658
129	0xf7	-0.10453923
130	0xf4	-0.13938564
131	0xf0	-0.18584752
132	0xfa	-0.06969282
133	0xf6	-0.1161547
134	0xfa	-0.06969282
135	0xf0	-0.18584752
136	0xdc	-0.41815692
137	0xd6	-0.48784974
138	0xdc	-0.41815692
139	0xcd	-0.592389
140	0x12	0.20907846
141	0x00	0.0
142	0x13	0.22069393
143	0x13	0.22069393
144	0x25	0.42977238
145	0x2b	0.49946523
146	0x37	0.63885087
147	0x3e	0.7201592
148	0x21	0.3833105
149	0x2b	0.49946523
150	0x17	0.26715583
151	0xfe	-0.02323094
152	0x00	0.0
153	0xeb	-0.24392487
154	0x05	0.05807735
155	0x14	0.2323094
156	0xf4	-0.13938564
157	0xf3	-0.15100111
158	0xfe	-0.02323094
159	0xf0	-0.18584752
160	0xf2	-0.16261658
161	0xe5	-0.3136177
162	0xfc	-0.04646188
163	0x00	0.0
164	0xe8	-0.27877128
165	0x0c	0.13938564
166	0x09	0.10453923
167	0x1c	0.32523316
168	0x0f	0.17423205
169	0x22	0.39492598
170	0x36	0.6272354
171	0xf3	-0.15100111
172	0xf9	-0.08130829
173	0x07	0.08130829
174	0x0a	0.1161547
175	0xfe	-0.02323094
176	0x06	0.06969282
177	0x14	0.2323094
178	0x23	0.40654147
179	0x0f	0.17423205
180	0xdf	-0.3833105
181	0xbc	-0.78985196
182	0xe2	-0.3484641
183	0x05	0.05807735
184	0xf0	-0.18584752
185	0xeb	-0.24392487
186	0xf0	-0.18584752
187	0xeb	-0.24392487
188	0xf1	-0.17423205
189	0xe8	-0.27877128
190	0xf7	-0.10453923
191	0xf0	-0.18584752
192	0xf0	-0.18584752
193	0xce	-0.5807735
194	0xca	-0.6272354
195	0x25	0.42977238
196	0xee	-0.20907846
197	0x2a	0.48784974
198	0x36	0.6272354
199	0x13	0.22069393
200	0x0a	0.1161547
201	0x02	0.02323094
202	0xf8	-0.09292376
203	0x02	0.02323094
204	0xf8	-0.09292376
205	0xf3	-0.15100111
206	0x0a	0.1161547
207	0xfb	-0.05807735
208	0x10	0.18584752
209	0x25	0.42977238
210	0x0c	0.13938564
211	0xf8	-0.09292376
212	0xed	-0.22069393
213	0xf8	-0.09292376
214	0x0f	0.17423205
215	0xf7	-0.10453923
216	0x06	0.06969282
217	0xf7	-0.10453923
218	0x03	0.03484641
219	0xfe	-0.02323094
220	0x0b	0.12777017
221	0xf1	-0.17423205
222	0x08	0.09292376
223	0x0e	0.16261658
224	0xe3	-0.33684862
225	0xf7	-0.10453923
226	0x1e	0.3484641
227	0x12	0.20907846
228	0x06	0.06969282
229	0x01	0.01161547
230	0xfc	-0.04646188
231	0xec	-0.2323094
232	0xf3	-0.15100111
233	0xf2	-0.16261658
234	0xf8	-0.09292376
235	0xf6	-0.1161547
236	0x03	0.03484641
237	0x11	0.19746299
238	0x17	0.26715583
239	0x15	0.24392487
240	0x21	0.3833105
241	0x30	0.55754256
242	0x3d	0.70854366
243	0x3f	0.7317746
244	0x58	1.0221614
245	0x49	0.8479293
246	0x47	0.8246984
247	0x5c	1.0686233
248	0x3e	0.7201592
249	0x32	0.5807735
250	0xea	-0.25554034
251	0xc4	-0.6969282
252	0x0b	0.12777017
253	0x0e	0.16261658
254	0x0f	0.17423205
255	0xe7	-0.29038674

tfl.pseudo_qconst12 i1 [20, 28] scale=0.009729009 zero_point=0
0	0x20	0.3113283
1	0x17	0.2237672
2	0x40	0.6226566
3	0x16	0.2140382
4	0xe8	-0.23349622
5	0xea	-0.2140382
6	0xe8	-0.23349622
7	0x0b	0.1070191
8	0xfc	-0.038916036
9	0x16	0.2140382
10	0x24	0.35024434
11	0x02	0.019458018
12	0xf4	-0.11674811
13	0x16	0.2140382
14	0x28	0.38916036
15	0xf0	-0.15566415
16	0xc4	-0.58374053
17	0xbe	-0.6421146
18	0xa7	-0.8658818
19	0xd9	-0.37943137
20	0xf2	-0.13620612
21	0x28	0.38916036
22	0x46	0.68103063
23	0x51	0.78804976
24	0x4d	0.7491337
25	0x36	0.5253665
26	0x29	0.39888936
27	0x27	0.37943137
28	0x16	0.2140382
29	0x15	0.2043092
30	0xef	-0.16539316
31	0xd7	-0.39888936
32	0xf1	-0.14593513
33	0xe5	-0.26268324
34	0x18	0.23349622
35	0x16	0.2140382
36	0x02	0.019458018
37	0xee	-0.17512217
38	0xe5	-0.26268324
39	0x0a	0.09729009
40	0x0d	0.12647712
41	0x08	0.07783207
42	0xfa	-0.058374055
43	0xe9	-0.2237672
44	0x0e	0.13620612
45	0x22	0.33078632
46	0x08	0.07783207
47	0xf0	-0.15566415
48	0xca	-0.5253665
49	0xed	-0.18485117
50	0xf1	-0.14593513
51	0x27	0.37943137
52	0x45	0.6713016
53	0x4e	0.75886273
54	0x6a	1.0312749
55	0x0f	0.14593513
56	0xff	-0.009729009
57	0x25	0.35997334
58	0xe6	-0.25295424
59	0xe3	-0.28214127
60	0x17	0.2237672
61	0x17	0.2237672
62	0x05	0.048645046
63	0xf3	-0.12647712
64	0xf4	-0.11674811
65	0xbc	-0.66157264
66	0xc6	-0.56428254
67	0xec	-0.19458018
68	0x17	0.2237672
69	0x1a	0.25295424
70	0x1f	0.3015993
71	0xd6	-0.4086184
72	0xfa	-0.058374055
73	0xeb	-0.2043092
74	0x00	0.0
75	0x01	0.009729009
76	0xe6	-0.25295424
77	0x02	0.019458018
78	0x06	0.058374055
79	0xeb	-0.2043092
80	0xb4	-0.7394047
81	0x05	0.048645046
82	0xf8	-0.07783207
83	0x0e	0.13620612
84	0xff	-0.009729009
85	0x10	0.15566415
86	0xdd	-0.34051532
87	0xe0	-0.3113283
88	0x1a	0.25295424
89	0xfb	-0.048645046
90	0xfa	-0.058374055
91	0x34	0.5059085
92	0x0c	0.11674811
93	0xeb	-0.2043092
94	0xf8	-0.07783207
95	0xe2	-0.29187027
96	0xf9	-0.06810306
97	0x1a	0.25295424
98	0x10	0.15566415
99	0xed	-0.18485117
100	0xc6	-0.56428254
101	0xeb	-0.2043092
102	0xf9	-0.06810306
103	0x16	0.2140382
104	0x0b	0.1070191
105	0xf6	-0.09729009
106	0x09	0.087561086
107	0x10	0.15566415
108	0xef	-0.16539316
109	0xf1	-0.14593513
110	0x56	0.8366948
111	0x2b	0.4183474
112	0x20	0.3113283
113	0xff	-0.009729009
114	0xac	-0.8172368
115	0xa9	-0.8464238
116	0xdd	-0.34051532
117	0xfb	-0.048645046
118	0x27	0.37943137
119	0x4b	0.7296757
120	0x35	0.51563746
121	0x14	0.19458018
122	0x39	0.5545535
123	0x3b	0.57401156
124	0x1c	0.27241224
125	0xd1	-0.45726344
126	0xdb	-0.35997334
127	0xdf	-0.3210573
128	0x06	0.058374055
129	0xd4	-0.4280764
130	0x0a	0.09729009
131	0xff	-0.009729009
132	0x1e	0.29187027
133	0x14	0.19458018
134	0x18	0.23349622
135	0x0b	0.1070191
136	0xd2	-0.4475344
137	0xbe	-0.6421146
138	0xca	-0.5253665
139	0xbe	-0.6421146
140	0xeb	-0.2043092
141	0xf2	-0.13620612
142	0xf9	-0.06810306
143	0x45	0.6713016
144	0x47	0.69075966
145	0x5f	0.92425585
146	0x45	0.6713016
147	0x49	0.71021765
148	0x17	0.2237672
149	0xe7	-0.24322523
150	0xf3	-0.12647712
151	0xd7	-0.39888936
152	0xd9	-0.37943137
153	0x17	0.2237672
154	0x11	0.16539316
155	0xff	-0.009729009
156	0x0e	0.13620612
157	0x06	0.058374055
158	0xec	-0.19458018
159	0x15	0.2043092
160	0xe2	-0.29187027
161	0xfb	-0.048645046
162	0x0d	0.12647712
163	0xf1	-0.14593513
164	0xf0	-0.15566415
165	0xcc	-0.5059085
166	0x39	0.5545535
167	0x26	0.36970234
168	0xf3	-0.12647712
169	0xc4	-0.58374053
170	0x11	0.16539316
171	0x14	0.19458018
172	0x0a	0.09729009
173	0x0a	0.09729009
174	0xeb	-0.2043092
175	0xed	-0.18485117
176	0x0d	0.12647712
177	0x00	0.0
178	0x10	0.15566415
179	0x07	0.06810306
180	0x09	0.087561086
181	0xf9	-0.06810306
182	0x03	0.029187027
183	0x06	0.058374055
184	0x03	0.029187027
185	0x0d	0.12647712
186	0xfc	-0.038916036
187	0x08	0.07783207
188	0xf0	-0.15566415
189	0x18	0.23349622
190	0xed	-0.18485117
191	0x04	0.038916036
192	0x26	0.36970234
193	0xd1	-0.45726344
194	0xf6	-0.09729009
195	0x1e	0.29187027
196	0x21	0.3210573
197	0xc8	-0.5448245
198	0xaa	-0.8366948
199	0x0c	0.11674811
200	0xd9	-0.37943137
201	0x06	0.058374055
202	0x37	0.5350955
203	0x1b	0.26268324
204	0x23	0.34051532
205	0x1a	0.25295424
206	0xff	-0.009729009
207	0x16	0.2140382
208	0x0d	0.12647712
209	0xed	-0.18485117
210	0xd6	-0.4086184
211	0xde	-0.33078632
212	0x11	0.16539316
213	0x0a	0.09729009
214	0x12	0.17512217
215	0x00	0.0
216	0x0c	0.11674811
217	0x0e	0.13620612
218	0xe5	-0.26268324
219	0xff	-0.009729009
220	0xfd	-0.029187027
221	0x23	0.34051532
222	0xe8	-0.23349622
223	0xf9	-0.06810306
224	0xe1	-0.3015993
225	0xd5	-0.4183474
226	0x1c	0.27241224
227	0xdd	-0.34051532
228	0x04	0.038916036
229	0xfc	-0.038916036
230	0x23	0.34051532
231	0x41	0.6323856
232	0xf9	-0.06810306
233	0xf7	-0.087561086
234	0x02	0.019458018
235	0xdc	-0.35024434
236	0xc5	-0.57401156
237	0x0f	0.14593513
238	0xf0	-0.15566415
239	0xf0	-0.15566415
240	0x11	0.16539316
241	0x08	0.07783207
242	0x05	0.048645046
243	0x0c	0.11674811
244	0x01	0.009729009
245	0xf6	-0.09729009
246	0xfa	-0.058374055
247	0x1c	0.27241224
248	0xe0	-0.3113283
249	0xf6	-0.09729009
250	0xb2	-0.75886273
251	0x06	0.058374055
252	0x0a	0.09729009
253	0xf6	-0.09729009
254	0xe7	-0.24322523
255	0xfe	-0.019458018

tfl.pseudo_qconst13 i1 [20, 28] scale=0.016546804 zero_point=0
0	0x15	0.3474829
1	0x04	0.06618722
2	0x06	0.09928083
3	0x1a	0.4302169
4	0xf1	-0.24820207
5	0x02	0.03309361
6	0x0d	0.21510845
7	0x10	0.26474887
8	0x00	0.0
9	0x00	0.0
10	0xf7	-0.14892124
11	0xee	-0.29784247
12	0xf8	-0.13237444
13	0x0c	0.19856165
14	0x0d	0.21510845
15	0xef	-0.2812957
16	0xf3	-0.21510845
17	0xf0	-0.26474887
18	0xff	-0.016546804
19	0x2f	0.7776998
20	0x35	0.87698066
21	0x4f	1.3071976
22	0x40	1.0589955
23	0x53	1.3733847
24	0x53	1.3733847
25	0x2f	0.7776998
26	0x0f	0.24820207
27	0x27	0.64532536
28	0xff	-0.016546804
29	0x03	0.049640413
30	0x2b	0.71151257
31	0xff	-0.016546804
32	0x09	0.14892124
33	0x06	0.09928083
34	0xed	-0.3143893
35	0xf6	-0.16546804
36	0x03	0.049640413
37	0xf7	-0.14892124
38	0x09	0.14892124
39	0x0b	0.18201485
40	0x46	1.1582763
41	0x3d	1.0093551
42	0x39	0.94316787
43	0x24	0.59568495
44	0x2d	0.7446062
45	0x19	0.41367012
46	0x0f	0.24820207
47	0xfc	-0.06618722
48	0x15	0.3474829
49	0x0a	0.16546804
50	0x09	0.14892124
51	0x1d	0.47985733
52	0xf4	-0.19856165
53	0xd3	-0.7446062
54	0xf0	-0.26474887
55	0xf3	-0.21510845
56	0x04	0.06618722
57	0x22	0.5625914
58	0xe4	-0.46331054
59	0xe7	-0.41367012
60	0x08	0.13237444
61	0x02	0.03309361
62	0x22	0.5625914
63	0x22	0.5625914
64	0x20	0.52949774
65	0xf4	-0.19856165
66	0xe0	-0.52949774
67	0xf9	-0.115827635
68	0x18	0.3971233
69	0x22	0.5625914
70	0x2f	0.7776998
71	0x22	0.5625914
72	0x1d	0.47985733
73	0x19	0.41367012
74	0x17	0.3805765
75	0xf4	-0.19856165
76	0xf4	-0.19856165
77	0xff	-0.016546804
78	0x1a	0.4302169
79	0x1d	0.47985733
80	0xf6	-0.16546804
81	0x0e	0.23165527
82	0xee	-0.29784247
83	0xf6	-0.16546804
84	0xfa	-0.09928083
85	0x12	0.29784247
86	0x0a	0.16546804
87	0x1c	0.46331054
88	0x31	0.8107934
89	0x14	0.33093607
90	0xfb	-0.08273402
91	0x21	0.5460445
92	0x19	0.41367012
93	0x0c	0.19856165
94	0x1c	0.46331054
95	0x09	0.14892124
96	0xe1	-0.51295096
97	0x11	0.2812957
98	0x2a	0.6949658
99	0x2b	0.71151257
100	0x1b	0.44676372
101	0x19	0.41367012
102	0x06	0.09928083
103	0xee	-0.29784247
104	0x07	0.115827635
105	0xea	-0.3640297
106	0xfd	-0.049640413
107	0xfe	-0.03309361
108	0xe9	-0.3805765
109	0xe4	-0.46331054
110	0x23	0.57913816
111	0x17	0.3805765
112	0xfd	-0.049640413
113	0x22	0.5625914
114	0xf3	-0.21510845
115	0x0b	0.18201485
116	0x19	0.41367012
117	0x09	0.14892124
118	0x0d	0.21510845
119	0x0b	0.18201485
120	0xed	-0.3143893
121	0xde	-0.5625914
122	0xdf	-0.5460445
123	0xee	-0.29784247
124	0x14	0.33093607
125	0x12	0.29784247
126	0x11	0.2812957
127	0x0f	0.24820207
128	0x18	0.3971233
129	0xf3	-0.21510845
130	0xec	-0.33093607
131	0xf6	-0.16546804
132	0xfa	-0.09928083
133	0xfe	-0.03309361
134	0x12	0.29784247
135	0xfd	-0.049640413
136	0xe0	-0.52949774
137	0xdd	-0.57913816
138	0xf2	-0.23165527
139	0x10	0.26474887
140	0xef	-0.2812957
141	0x0c	0.19856165
142	0x07	0.115827635
143	0x0c	0.19856165
144	0xed	-0.3143893
145	0xd5	-0.71151257
146	0xe1	-0.51295096
147	0xe5	-0.44676372
148	0xf3	-0.21510845
149	0xe8	-0.3971233
150	0xf4	-0.19856165
151	0x0e	0.23165527
152	0x29	0.678419
153	0x31	0.8107934
154	0x2a	0.6949658
155	0x10	0.26474887
156	0xfb	-0.08273402
157	0x00	0.0
158	0x06	0.09928083
159	0xfd	-0.049640413
160	0x1a	0.4302169
161	0x0f	0.24820207
162	0x08	0.13237444
163	0x2b	0.71151257
164	0x13	0.3143893
165	0xf8	-0.13237444
166	0x1c	0.46331054
167	0x29	0.678419
168	0xff	-0.016546804
169	0x08	0.13237444
170	0xd2	-0.761153
171	0xf0	-0.26474887
172	0xef	-0.2812957
173	0xfc	-0.06618722
174	0xf2	-0.23165527
175	0xff	-0.016546804
176	0xf7	-0.14892124
177	0xfb	-0.08273402
178	0x08	0.13237444
179	0xfb	-0.08273402
180	0xf8	-0.13237444
181	0x18	0.3971233
182	0x1b	0.44676372
183	0xff	-0.016546804
184	0xea	-0.3640297
185	0xfa	-0.09928083
186	0xf0	-0.26474887
187	0x07	0.115827635
188	0x0d	0.21510845
189	0x08	0.13237444
190	0x01	0.016546804
191	0x04	0.06618722
192	0xea	-0.3640297
193	0xc9	-0.91007423
194	0xfa	-0.09928083
195	0x1f	0.51295096
196	0x01	0.016546804
197	0xfa	-0.09928083
198	0xfc	-0.06618722
199	0x05	0.08273402
200	0xea	-0.3640297
201	0xed	-0.3143893
202	0xfa	-0.09928083
203	0xf4	-0.19856165
204	0xf9	-0.115827635
205	0xf1	-0.24820207
206	0xed	-0.3143893
207	0xe8	-0.3971233
208	0xfd	-0.049640413
209	0x18	0.3971233
210	0x02	0.03309361
211	0x46	1.1582763
212	0x38	0.9266211
213	0x2e	0.761153
214	0x15	0.3474829
215	0xfa	-0.09928083
216	0x02	0.03309361
217	0xfe	-0.03309361
218	0xec	-0.33093607
219	0x0a	0.16546804
220	0x37	0.91007423
221	0x21	0.5460445
222	0xf6	-0.16546804
223	0xe5	-0.44676372
224	0x0b	0.18201485
225	0xe6	-0.4302169
226	0xfe	-0.03309361
227	0xfd	-0.049640413
228	0xf5	-0.18201485
229	0x03	0.049640413
230	0x1b	0.44676372
231	0x12	0.29784247
232	0xf4	-0.19856165
233	0x18	0.3971233
234	0x2c	0.7280594
235	0x22	0.5625914
236	0x1d	0.47985733
237	0x12	0.29784247
238	0xf8	-0.13237444
239	0xed	-0.3143893
240	0xd7	-0.678419
241	0xdd	-0.57913816
242	0xe5	-0.44676372
243	0xf3	-0.21510845
244	0xf3	-0.21510845
245	0xfa	-0.09928083
246	0xe7	-0.41367012
247	0xf5	-0.18201485
248	0xcc	-0.8604338
249	0xe0	-0.52949774
250	0xac	-1.3899316
251	0xd9	-0.64532536
252	0xfc	-0.06618722
253	0x22	0.5625914
254	0xf0	-0.26474887
255	0xeb	-0.3474829
