Code/05_Wake-Word/model_marvin_stop.tflite (tflite, 9200 bytes, 3 tensors)

tfl.pseudo_qconst1 i1 [4, 96] scale=0.0015186789 zero_point=0
0	0xfd	-0.0045560366
1	0xf7	-0.01366811
2	0xdd	-0.05315376
3	0xf6	-0.0151867885
4	0x03	0.0045560366
5	0xf3	-0.019742824
6	0xf7	-0.01366811
7	0xfc	-0.0060747154
8	0x02	0.0030373577
9	0xf6	-0.0151867885
10	0xec	-0.030373577
11	0x05	0.0075933943
12	0xff	-0.0015186789
13	0xfc	-0.0060747154
14	0x0d	0.019742824
15	0xfc	-0.0060747154
16	0xf5	-0.016705468
17	0x05	0.0075933943
18	0x02	0.0030373577
19	0xff	-0.0015186789
20	0xfe	-0.0030373577
21	0xfc	-0.0060747154
22	0x0b	0.016705468
23	0xfc	-0.0060747154
24	0xd1	-0.0713779
25	0xca	-0.08200866
26	0xa6	-0.1366811
27	0x22	0.05163508
28	0xb3	-0.11693827
29	0xbe	-0.1002328
30	0x1c	0.042523008
31	0xf8	-0.012149431
32	0xf4	-0.018224146
33	0xfd	-0.0045560366
34	0xd6	-0.06378451
35	0x0b	0.016705468
36	0xdf	-0.0501164
37	0xec	-0.030373577
38	0x0d	0.019742824
39	0xfd	-0.0045560366
40	0x07	0.010630752
41	0xfd	-0.0045560366
42	0x01	0.0015186789
43	0x02	0.0030373577
44	0xda	-0.0577098
45	0x03	0.0045560366
46	0x0b	0.016705468
47	0xe3	-0.044041686
48	0xa0	-0.14579317
49	0xc8	-0.085046016
50	0x9c	-0.15186788
51	0x2b	0.06530319
52	0x8a	-0.1792041
53	0xb6	-0.11238223
54	0x34	0.0789713
55	0xeb	-0.031892255
56	0xe9	-0.034929615
57	0x01	0.0015186789
58	0xc5	-0.08960205
59	0x04	0.0060747154
60	0xc6	-0.08808337
61	0xd2	-0.06985923
62	0x08	0.012149431
63	0xe5	-0.04100433
64	0xfd	-0.0045560366
65	0x04	0.0060747154
66	0x05	0.0075933943
67	0xfa	-0.009112073
68	0xb5	-0.113900915
69	0x03	0.0045560366
70	0xfe	-0.0030373577
71	0xd6	-0.06378451
72	0xf8	-0.012149431
73	0xf7	-0.01366811
74	0xdf	-0.0501164
75	0x6c	0.16401732
76	0x0b	0.016705468
77	0xe7	-0.03796697
78	0x7f	0.19287221
79	0x17	0.034929615
80	0x03	0.0045560366
81	0x26	0.0577098
82	0xd0	-0.072896585
83	0x11	0.02581754
84	0xe3	-0.044041686
85	0xe6	-0.03948565
86	0x1e	0.045560367
87	0xf5	-0.016705468
88	0x0e	0.021261504
89	0x12	0.02733622
90	0x0c	0.018224146
91	0x05	0.0075933943
92	0xd6	-0.06378451
93	0x0d	0.019742824
94	0x0a	0.0151867885
95	0xd5	-0.06530319
96	0x02	0.0030373577
97	0x09	0.01366811
98	0x13	0.0288549
99	0xff	-0.0015186789
100	0xff	-0.0015186789
101	0x06	0.009112073
102	0x00	0.0
103	0xff	-0.0015186789
104	0xfb	-0.0075933943
105	0x05	0.0075933943
106	0x02	0.0030373577
107	0x05	0.0075933943
108	0x0f	0.022780184
109	0xfc	-0.0060747154
110	0x04	0.0060747154
111	0x0c	0.018224146
112	0xf9	-0.010630752
113	0xf7	-0.01366811
114	0xfe	-0.0030373577
115	0x04	0.0060747154
116	0xfe	-0.0030373577
117	0xf9	-0.010630752
118	0xf3	-0.019742824
119	0xf3	-0.019742824
120	0x0d	0.019742824
121	0x1f	0.047079045
122	0x2b	0.06530319
123	0xf7	-0.01366811
124	0x47	0.107826196
125	0x17	0.034929615
126	0xe5	-0.04100433
127	0x2a	0.06378451
128	0x16	0.033410937
129	0x08	0.012149431
130	0x06	0.009112073
131	0xfd	-0.0045560366
132	0x17	0.034929615
133	0x01	0.0015186789
134	0xf1	-0.022780184
135	0x10	0.024298862
136	0x0b	0.016705468
137	0xfe	-0.0030373577
138	0xff	-0.0015186789
139	0xe6	-0.03948565
140	0x19	0.03796697
141	0x02	0.0030373577
142	0xf6	-0.0151867885
143	0x10	0.024298862
144	0x25	0.056191117
145	0x2c	0.06682187
146	0x2c	0.06682187
147	0x0b	0.016705468
148	0x45	0.10478884
149	0x19	0.03796697
150	0xee	-0.02733622
151	0x2b	0.06530319
152	0x1e	0.045560367
153	0x01	0.0015186789
154	0x06	0.009112073
155	0xf7	-0.01366811
156	0x1a	0.03948565
157	0x0b	0.016705468
158	0xf6	-0.0151867885
159	0x10	0.024298862
160	0x32	0.07593394
161	0x0b	0.016705468
162	0x09	0.01366811
163	0xfc	-0.0060747154
164	0x0a	0.0151867885
165	0x05	0.0075933943
166	0x04	0.0060747154
167	0x07	0.010630752
168	0xfc	-0.0060747154
169	0xf2	-0.021261504
170	0x05	0.0075933943
171	0x17	0.034929615
172	0x0a	0.0151867885
173	0xfc	-0.0060747154
174	0xd2	-0.06985923
175	0x08	0.012149431
176	0xfe	-0.0030373577
177	0xf6	-0.0151867885
178	0xfc	-0.0060747154
179	0xf6	-0.0151867885
180	0x00	0.0
181	0xec	-0.030373577
182	0xe3	-0.044041686
183	0xfe	-0.0030373577
184	0x1f	0.047079045
185	0x10	0.024298862
186	0x0b	0.016705468
187	0xfa	-0.009112073
188	0x02	0.0030373577
189	0x14	0.030373577
190	0x01	0.0015186789
191	0xfa	-0.009112073
192	0x04	0.0060747154
193	0x08	0.012149431
194	0x21	0.0501164
195	0x01	0.0015186789
196	0x02	0.0030373577
197	0x0f	0.022780184
198	0xfd	-0.0045560366
199	0x01	0.0015186789
200	0xf9	-0.010630752
201	0x03	0.0045560366
202	0x0f	0.022780184
203	0xfe	-0.0030373577
204	0xf4	-0.018224146
205	0x00	0.0
206	0xf8	-0.012149431
207	0xef	-0.02581754
208	0x03	0.0045560366
209	0xf8	-0.012149431
210	0xff	-0.0015186789
211	0x07	0.010630752
212	0xfb	-0.0075933943
213	0xf9	-0.010630752
214	0xf0	-0.024298862
215	0x01	0.0015186789
216	0x11	0.02581754
217	0x50	0.12149431
218	0x53	0.12605034
219	0xed	-0.0288549
220	0xb0	-0.12149431
221	0x24	0.05467244
222	0xed	-0.0288549
223	0xa0	-0.14579317
224	0x32	0.07593394
225	0xf3	-0.019742824
226	0x07	0.010630752
227	0xfc	-0.0060747154
228	0xee	-0.02733622
229	0x08	0.012149431
230	0xfc	-0.0060747154
231	0xf2	-0.021261504
232	0xf7	-0.01366811
233	0xff	-0.0015186789
234	0xff	-0.0015186789
235	0xef	-0.02581754
236	0xd4	-0.06682187
237	0x00	0.0
238	0xf9	-0.010630752
239	0xcf	-0.07441527
240	0x1c	0.042523008
241	0x62	0.14883053
242	0x59	0.13516241
243	0xe0	-0.048597723
244	0xc5	-0.08960205
245	0x2e	0.06985923
246	0x04	0.0060747154
247	0xaa	-0.13060638
248	0x4c	0.1154196
249	0xe5	-0.04100433
250	0x05	0.0075933943
251	0xfd	-0.0045560366
252	0xfb	-0.0075933943
253	0x0b	0.016705468
254	0xfc	-0.0060747154
255	0xf9	-0.010630752

tfl.pseudo_qconst3 i1 [8, 10, 8, 8]
0	0xcf	-49
1	0x00	0
2	0xec	-20
3	0xbd	-67
4	0x16	22
5	0xf3	-13
6	0xe9	-23
7	0xeb	-21
8	0xee	-18
9	0x07	7
10	0x12	18
11	0x98	-104
12	0x38	56
13	0x06	6
14	0xdb	-37
15	0xcc	-52
16	0xf7	-9
17	0x08	8
18	0x2e	46
19	0xe4	-28
20	0x08	8
21	0x10	16
22	0xd0	-48
23	0x0a	10
24	0xff	-1
25	0xef	-17
26	0x2f	47
27	0x17	23
28	0x12	18
29	0x07	7
30	0xea	-22
31	0x3a	58
32	0x10	16
33	0xf8	-8
34	0x28	40
35	0x34	52
36	0x0e	14
37	0x19	25
38	0xed	-19
39	0x1c	28
40	0x09	9
41	0x01	1
42	0x1f	31
43	0x29	41
44	0x03	3
45	0x19	25
46	0x17	23
47	0x25	37
48	0x09	9
49	0x13	19
50	0x0f	15
51	0xf8	-8
52	0x18	24
53	0x0c	12
54	0x0c	12
55	0xfe	-2
56	0x14	20
57	0xfb	-5
58	0x13	19
59	0xd7	-41
60	0x1b	27
61	0x05	5
62	0xfc	-4
63	0x15	21
64	0xc1	-63
65	0xf1	-15
66	0xd3	-45
67	0xbb	-69
68	0x0e	14
69	0xdd	-35
70	0xec	-20
71	0xe3	-29
72	0xe9	-23
73	0x15	21
74	0x14	20
75	0xa6	-90
76	0x30	48
77	0x02	2
78	0xe4	-28
79	0xed	-19
80	0xf1	-15
81	0xf6	-10
82	0x49	73
83	0xd9	-39
84	0xfe	-2
85	0x0c	12
86	0xec	-20
87	0xfb	-5
88	0xef	-17
89	0x0e	14
90	0x47	71
91	0x24	36
92	0x0e	14
93	0x18	24
94	0xe0	-32
95	0xff	-1
96	0xfb	-5
97	0x06	6
98	0x25	37
99	0x14	20
100	0x01	1
101	0x07	7
102	0xed	-19
103	0x30	48
104	0x05	5
105	0xf0	-16
106	0x18	24
107	0x14	20
108	0x04	4
109	0x20	32
110	0x02	2
111	0x1d	29
112	0x08	8
113	0x06	6
114	0x1c	28
115	0xe9	-23
116	0x0e	14
117	0x0d	13
118	0xfd	-3
119	0x07	7
120	0x13	19
121	0xf8	-8
122	0x04	4
123	0xc7	-57
124	0x19	25
125	0x0e	14
126	0xf3	-13
127	0xf6	-10
128	0xb1	-79
129	0x27	39
130	0x9a	-102
131	0xd8	-40
132	0x1d	29
133	0xba	-70
134	0xd9	-39
135	0xdd	-35
136	0xca	-54
137	0x01	1
138	0xfd	-3
139	0x84	-124
140	0x35	53
141	0xf8	-8
142	0xbf	-65
143	0xe2	-30
144	0xe6	-26
145	0x06	6
146	0x36	54
147	0xc6	-58
148	0xfa	-6
149	0x17	23
150	0xf6	-10
151	0xfe	-2
152	0xef	-17
153	0xff	-1
154	0x4f	79
155	0x02	2
156	0xfc	-4
157	0x1a	26
158	0xe8	-24
159	0x1d	29
160	0x0a	10
161	0xf9	-7
162	0x2d	45
163	0x1a	26
164	0x08	8
165	0x14	20
166	0x11	17
167	0x10	16
168	0x06	6
169	0xd2	-46
170	0x35	53
171	0x0c	12
172	0x12	18
173	0x16	22
174	0xe6	-26
175	0x28	40
176	0xfd	-3
177	0x0f	15
178	0x24	36
179	0x06	6
180	0x11	17
181	0x0e	14
182	0x10	16
183	0x0a	10
184	0x22	34
185	0x1e	30
186	0x1d	29
187	0xf2	-14
188	0x12	18
189	0x05	5
190	0x17	23
191	0x14	20
192	0x96	-106
193	0x23	35
194	0x9a	-102
195	0xef	-17
196	0x20	32
197	0xa2	-94
198	0xbb	-69
199	0xf4	-12
200	0xd4	-44
201	0xfe	-2
202	0xd5	-43
203	0x8b	-117
204	0x2d	45
205	0xe4	-28
206	0xeb	-21
207	0xb6	-74
208	0xd5	-43
209	0x07	7
210	0x20	32
211	0xa3	-93
212	0xfb	-5
213	0xfd	-3
214	0xf6	-10
215	0xe3	-29
216	0xe2	-30
217	0x09	9
218	0x48	72
219	0xeb	-21
220	0xff	-1
221	0x05	5
222	0xf1	-15
223	0x16	22
224	0x0d	13
225	0x16	22
226	0x37	55
227	0x08	8
228	0x13	19
229	0x04	4
230	0xef	-17
231	0x13	19
232	0x0c	12
233	0x0a	10
234	0x33	51
235	0xfb	-5
236	0x11	17
237	0x16	22
238	0xf6	-10
239	0x0c	12
240	0x0a	10
241	0xf7	-9
242	0x3c	60
243	0xf8	-8
244	0x0d	13
245	0x1c	28
246	0x1a	26
247	0xf4	-12
248	0x1f	31
249	0xfd	-3
250	0x23	35
251	0xe5	-27
252	0x0e	14
253	0x1c	28
254	0xfb	-5
255	0x00	0

tfl.pseudo_qconst5 i1 [8, 10, 8, 1]
0	0x88	-120
1	0xea	-22
2	0xa7	-89
3	0xd6	-42
4	0xd1	-47
5	0xf4	-12
6	0xf6	-10
7	0x04	4
8	0xa8	-88
9	0x04	4
10	0xcd	-51
11	0xf0	-16
12	0xdf	-33
13	0xe6	-26
14	0xf1	-15
15	0x29	41
16	0xaf	-81
17	0xfb	-5
18	0xb7	-73
19	0xfe	-2
20	0xe7	-25
21	0xf4	-12
22	0xf6	-10
23	0x35	53
24	0xe5	-27
25	0x07	7
26	0xd4	-44
27	0x0c	12
28	0xee	-18
29	0x16	22
30	0x2e	46
31	0x28	40
32	0xc3	-61
33	0xfa	-6
34	0xe1	-31
35	0x0d	13
36	0x10	16
37	0x05	5
38	0x36	54
39	0x3a	58
40	0xf5	-11
41	0xf9	-7
42	0xf9	-7
43	0xf9	-7
44	0x1e	30
45	0x1d	29
46	0x29	41
47	0x24	36
48	0xf5	-11
49	0xff	-1
50	0xf8	-8
51	0x05	5
52	0x3c	60
53	0x2e	46
54	0x24	36
55	0x18	24
56	0xf8	-8
57	0x18	24
58	0xfb	-5
59	0x13	19
60	0x36	54
61	0x29	41
62	0x4b	75
63	0x37	55
64	0x0e	14
65	0x1d	29
66	0x23	35
67	0x3e	62
68	0x6a	106
69	0x2d	45
70	0x59	89
71	0x2d	45
72	0x35	53
73	0x3b	59
74	0x39	57
75	0x46	70
76	0x69	105
77	0x6a	106
78	0x7f	127
79	0x53	83
80	0x9a	-102
81	0xc7	-57
82	0x3d	61
83	0x01	1
84	0x15	21
85	0x59	89
86	0x9b	-101
87	0xe9	-23
88	0xec	-20
89	0xed	-19
90	0xdf	-33
91	0xe3	-29
92	0xe1	-31
93	0x37	55
94	0x17	23
95	0x3e	62
96	0xf6	-10
97	0xbf	-65
98	0xb2	-78
99	0xb4	-76
100	0xe1	-31
101	0x3e	62
102	0x2e	46
103	0xc5	-59
104	0xe0	-32
105	0xea	-22
106	0x20	32
107	0xdd	-35
108	0x0b	11
109	0x41	65
110	0xbe	-66
111	0xe2	-30
112	0xce	-50
113	0xdc	-36
114	0x3c	60
115	0x5c	92
116	0xcb	-53
117	0xf7	-9
118	0x06	6
119	0x2a	42
120	0xc9	-55
121	0x92	-110
122	0x01	1
123	0x8d	-115
124	0xcb	-53
125	0xd1	-47
126	0xc4	-60
127	0xff	-1
128	0xeb	-21
129	0x00	0
130	0x8d	-115
131	0x90	-112
132	0x0f	15
133	0xf2	-14
134	0xf6	-10
135	0x14	20
136	0xc6	-58
137	0x2c	44
138	0xf5	-11
139	0xfe	-2
140	0xd2	-46
141	0xe6	-26
142	0x20	32
143	0x33	51
144	0xb6	-74
145	0x76	118
146	0x9d	-99
147	0x32	50
148	0x37	55
149	0x88	-120
150	0x20	32
151	0x18	24
152	0xf1	-15
153	0x7f	127
154	0x34	52
155	0xbe	-66
156	0x26	38
157	0x01	1
158	0xbd	-67
159	0x76	118
160	0xf6	-10
161	0xd7	-41
162	0x2f	47
163	0x1d	29
164	0x3e	62
165	0x16	22
166	0x2a	42
167	0xfc	-4
168	0xf7	-9
169	0xe1	-31
170	0x1f	31
171	0x12	18
172	0x42	66
173	0x12	18
174	0x25	37
175	0xda	-38
176	0xf5	-11
177	0xe4	-28
178	0x30	48
179	0x04	4
180	0x3b	59
181	0xf4	-12
182	0x24	36
183	0xd4	-44
184	0x05	5
185	0xd8	-40
186	0x3c	60
187	0xf5	-11
188	0x4b	75
189	0xf1	-15
190	0x20	32
191	0xc3	-61
192	0x05	5
193	0xd3	-45
194	0x4b	75
195	0xf4	-12
196	0x5a	90
197	0xe7	-25
198	0x32	50
199	0xb4	-76
200	0x04	4
201	0xd9	-39
202	0x52	82
203	0xf5	-11
204	0x57	87
205	0xea	-22
206	0x3a	58
207	0xae	-82
208	0x10	16
209	0xc8	-56
210	0x4e	78
211	0xec	-20
212	0x6f	111
213	0xec	-20
214	0x3a	58
215	0xba	-70
216	0x08	8
217	0xcf	-49
218	0x5c	92
219	0xf8	-8
220	0x6a	106
221	0xee	-18
222	0x46	70
223	0xad	-83
224	0x09	9
225	0xd2	-46
226	0x69	105
227	0xfb	-5
228	0x7f	127
229	0xe6	-26
230	0x51	81
231	0xc6	-58
232	0x15	21
233	0xc0	-64
234	0x5f	95
235	0xfb	-5
236	0x79	121
237	0xfc	-4
238	0x54	84
239	0xcf	-49
240	0x65	101
241	0x7e	126
242	0x50	80
243	0x26	38
244	0x01	1
245	0xd8	-40
246	0x9a	-102
247	0x93	-109
248	0x5e	94
249	0x77	119
250	0x47	71
251	0x29	41
252	0xf8	-8
253	0xe7	-25
254	0x9f	-97
255	0x85	-123
