Code/03_XOR/model_xor.tflite (tflite, 1784 bytes, 3 tensors)

arith.constant f4 [1, 4]
-6.406093 -4.507476 10.151923 5.1196136
00000000: b7fe ccc0 3e3d 90c0 476e 2241 e0d3 a340

sequential/input/BiasAdd/ReadVariableOp f4 [4]
1.766827 0.81488335 -2.7186596 -1.2000217
00000000: 6327 e23f 329c 503f 85fe 2dc0 509a 99bf

sequential/input/MatMul f4 [4, 2]
5.242755 -3.782305 -3.7075388 -4.1126337 5.6572275 -6.728025 -4.2694488 2.684432
00000000: a6c4 a740 4911 72c0 5148 6dc0 b29a 83c0
00000010: 0208 b540 fb4b d7c0 539f 88c0 bccd 2b40
